ckpts/LOLv1_checkpoint2288-83.pt (torch, 693685 bytes, 80 tensors)

module.lownet.intro.weight f4 [32, 3, 3, 3]
00000000: 8fed a83c 23c8 d1ba d2c5 ab3d b688 38bc
00000010: 5392 ccbc e320 d8bd c74c 513d 3f2e 09be
00000020: 8b96 11be 78a0 d33d a9f0 76be 7b48 fe3d
00000030: 9e6c 0fbd f310 b6bd 37c6 61be 8c63 01be
00000040: 1aaf dc3c 7976 c3bd 5cc9 873d 2f29 5a3c
00000050: 2448 1f3e d77d 803d 8d41 fb3d 9946 8d3d
00000060: c362 f4bc a523 d1bc ee6c 31be 476a 7fbd
00000070: 61b3 36bd 99ca b3bd bdf4 8cbd 5a15 23be
00000080: 26e3 b8bc 001f 8dbd 9068 0a3e 2ac1 b03d
00000090: 11fb 5b3e 7275 0ebc 4d04 f4bb d537 103e
000000a0: ba61 9abd cabf 40bc 9be0 23be a1df 633c
000000b0: cc53 a93d 6976 df3d f39d 643e 2509 003e
000000c0: 1d4c 7d3e b979 fd3d 4ea6 783e 8031 5d3e
000000d0: 2ad6 753e 0fde 323e a872 a43e 7070 b9bd
000000e0: aac2 a4bc 618a 813e 5dd6 4ebe 4dd8 30be
000000f0: 2028 723c e54d 1e3e 7a93 933e c61c f4bd
00000100: e6c6 a3be c3a0 193d ac21 473e 1019 1cbe
00000110: ba50 cbbc 9844 b3bd d247 213d b321 86bd
00000120: 3500 713d 7a09 13bd 1da7 823d b53f 18bc
00000130: 47e8 953e 8637 35be c03e c7bb 44e7 06be
00000140: db23 bfbd 8527 19be 95be 5fbb 352c 07bc
00000150: cfd3 88bd 8db6 dd3d 5214 cebc 65f9 f6bd
00000160: b070 7ebe 93dc 53be 8be5 7b3c 933c 393e
00000170: 7e03 363e cf97 883d b064 ad3e b09b 773e
00000180: 99ad 49be f144 4f3e a6fe d6bd 5f93 45be
00000190: 2475 2a3e c0e7 ccbd 942d febd 69f0 753e
000001a0: b383 4ebe 3d9a b23d 6623 77be f81a f4bd
000001b0: 9c82 bc3d 4981 5e3d 4fcc e73c 62ec e6bc
000001c0: e43a f8bd bc03 ec3c 5d6a 653e b036 243e
000001d0: 3f35 ab3d d677 64bd 44e9 a13d 4baf d5bd
000001e0: 516c 2e3d 573a bb3d 9b90 2bbe 411d ccbd
000001f0: 35d6 4dbe 1eca 41bd 6bb0 dfbd 5cad 8c3d
00000200: 484f 29bd 36b8 073e c3fb c93d 9ba4 4cbd
00000210: ca4c cdbd 0286 3c3e d5b1 ed3c d67f 523e
00000220: e9b3 3abe daaf 12bd 7e77 343e 9dd5 bf3d
00000230: 7ef5 3e3e f58c e43c 55dd c4bc 1b78 f8bd
00000240: 4baf 473e 16e2 a73d b7d7 13bd 289d 0d3e
00000250: 1095 bbbc f287 a0bd 42b5 573e a955 8b3e
00000260: 5f2d 543e b249 05be c923 91be 3b2b 89be
00000270: 1552 5bbe 03e3 bebe 02ba 0cbe 5b6b 753d
00000280: 9d66 88be 6c47 d53d a129 133e 56a9 a2bd
00000290: 9935 3b3d e954 d2bd 25d6 723e dd59 f93d
000002a0: 6381 633c 28bf 263d 9baf 813e afc0 a6bc
000002b0: 475b 3b3e 9cb2 eb3d bd7f 51bd 051a 63be
000002c0: 8ab6 603e 762c 243e 6ba1 2bbe 4cd2 cbbd
000002d0: f01f f4bd 0fe9 d13d cbbb 7cbe 3d08 fabd
000002e0: f942 b43c 9f9f 8fbe e974 34be 4da9 50be
000002f0: 24b6 2ebe 930a 21bd 8339 2b3e 9bc4 03be
00000300: 4b26 fb3d 88e2 00be d5ff 36be be2a b1bc
00000310: e612 25bd 4fcf df3b 8d2e 843e b0a6 1f3c
00000320: 8662 923d 58c9 143e c837 9dbe 7450 cabc
00000330: 0b57 f93d 7591 18be b0d4 fabc 5a7e 9e3d
00000340: f185 28be cc3f a9bd 0d8b a0bd 1e9d 47be
00000350: da50 9abe d5a0 923d e205 f9bd a4f7 08be
00000360: b7b1 88be 15d7 22be f885 dabd ea7f 13be
00000370: af11 843e f273 4b3d 04da 8dbd aabd 8e3c
00000380: d276 66bd e195 0bbe cacc 663e 173c 06be
00000390: 2bf6 353e c53e 343e 2eb5 ea3d 18cc eb3c
000003a0: 0cbd 4cbe 3bd6 32bd 586a 74bd e27a 4f3e
000003b0: 752a b7bd 9bfe 663e ef0f c73d 99d1 78bd
000003c0: 7476 733d d39e 363e fc2a 50bd 45fc dcbd
000003d0: 4358 893c 8f74 adbd 06b8 6dbe 3ab1 19bd
000003e0: 2fef 81be 3907 38be 688c 6cbe 3879 dcbd
000003f0: d130 ebbd 4e68 ab3e ec6b 193e c822 353e
0.02062109 -0.001600508 0.083873406 -0.011263063 -0.024972117 -0.10553148 0.05109861 -0.13396548
-0.14217584 0.10333341 -0.24115242 0.12416168 -0.035015695 -0.088899516 -0.22048269 -0.1263563
0.026938964 -0.09544081 0.06630203 0.013315483 0.15554863 0.06274002 0.12268362 0.06898231
-0.02983225 -0.025529692 -0.1732671 -0.062357213 -0.044604663 -0.08778877 -0.068826176 -0.15926114
-0.02256925 -0.068906784 0.1351645 0.08630593 0.21482493 -0.008694993 -0.0074468018 0.14083798
-0.07538171 -0.011764476 -0.16003649 0.013908298 0.08267936 0.10911257 0.22325878 0.12503488
0.24736066 0.123767324 0.2428219 0.21600914 0.24007478 0.17467521 0.32118726 -0.09054649
-0.020112354 0.25300887 -0.2019896 -0.17270012 0.014780074 0.15459402 0.28823453 -0.119195506
-0.31987685 0.03750683 0.19446439 -0.15243936 -0.024818767 -0.087533176 0.039375134 -0.06549396
0.058838088 -0.03589771 0.063795306 -0.009292533 0.29278776 -0.17696962 -0.0060804784 -0.13174158
-0.09333011 -0.14956482 -0.0034140695 -0.008250286 -0.06681024 0.108258344 -0.025156174 -0.12059287
-0.24847674 -0.20689611 0.0153745515 0.18089513 0.1777477 0.0666958 0.3386588 0.24180484
-0.19695129 0.20241143 -0.10497789 -0.19294499 0.16646248 -0.1000514 -0.12411037 0.2401749
-0.20167427 0.08720825 -0.24134597 -0.119192064 0.09204599 0.054322515 0.028295664 -0.028188888
-0.121206075 0.028810374 0.22403856 0.16036487 0.08359765 -0.055778347 0.0790582 -0.10433825
0.042583767 0.09141987 -0.16754381 -0.09966517 -0.20101245 -0.047311895 -0.10922321 0.06869003
-0.041335374 0.13253865 0.09862473 -0.049961668 -0.10024412 0.18410495 0.029015461 0.20556578
-0.18232693 -0.035812236 0.17623708 0.093669154 0.18648335 0.027899245 -0.02403132 -0.12132283
0.19500463 0.08197419 -0.036094394 0.13829482 -0.022898227 -0.078384295 0.21065238 0.2721379
0.20720433 -0.13016394 -0.28347614 -0.26790795 -0.2141803 -0.3728257 -0.13742831 0.059916835
-0.26640788 0.10414013 0.14371349 -0.079424545 0.04570541 -0.102701016 0.23714502 0.12175343
0.013885829 0.040709645 0.2532929 -0.02035555 0.18296538 0.115086764 -0.05114721 -0.22177894
0.21944633 0.16032586 -0.16760795 -0.0995222 -0.11920154 0.102495305 -0.24681012 -0.122086026
0.022004591 -0.2805147 -0.17622723 -0.20377083 -0.17061669 -0.039316725 0.16721158 -0.12867968
0.12263163 -0.12586415 -0.1787103 -0.021626826 -0.040301226 0.006830133 0.25816765 0.009744331
0.07147698 0.14529932 -0.3070662 -0.024696566 0.12174805 -0.14899237 -0.030618995 0.077389434
-0.16457345 -0.082641214 -0.07839022 -0.19493529 -0.3013981 0.071595825 -0.12159325 -0.13375717
-0.26698086 -0.1590236 -0.10670084 -0.14404264 0.25794742 0.04967112 -0.06926349 0.017424423
-0.05626566 -0.13631393 0.22539058 -0.1310886 0.17769687 0.1760207 0.114603385 0.028783843
-0.1999399 -0.043661337 -0.05967173 0.2026172 -0.08943645 0.22558062 0.09719836 -0.060746763
0.059439138 0.17834024 -0.050822243 -0.10790304 0.01676572 -0.084694974 -0.2321473 -0.037522532
-0.25377795 -0.17971505 -0.23100436 -0.10765308 -0.1148392 0.33478016 0.14982575 0.17689049

module.lownet.intro.bias f4 [32]
00000000: 4804 f0bd 9306 0a3e e15a f6bb d40b 6bbd
00000010: e291 19bd 16c0 dd3d 7e68 60bb c72b 773d
00000020: 1c69 0d3d a9de 8dbd fcfb f53b 894d 083e
00000030: 0819 ddbd 3caa 8dbd 5088 1bbc 53c6 1cba
00000040: 7cec 1a3d eb20 013e aa36 d23c 72e4 b43c
00000050: 8785 143b 96eb 983d 1f6e 253d 8949 1abc
00000060: ad76 433c 2e51 773d cd84 7abd 1ef1 0cbd
00000070: 58f3 293e ee87 9ebd c100 593b 1693 b2bd
-0.117195666 0.1347907 -0.007518158 -0.057384327 -0.03749264 0.10827653 -0.003424197 0.060344484
0.03452407 -0.06927235 0.0075068455 0.13310827 -0.1079579 -0.06917235 -0.009492949 -0.00059804803
0.037823185 0.12610213 0.025660831 0.022081587 0.0022662596 0.074668095 0.040388223 -0.009416946
0.01193015 0.060380153 -0.061161805 -0.034409635 0.16596735 -0.0774077 0.0033112022 -0.08719461

module.lownet.ending.weight f4 [3, 32, 3, 3]
00000000: c21f c73c c68c 263d 9efc 12bd f268 5fbc
00000010: 9be2 88bd c542 683c cded a0bc 2cc7 9dbb
00000020: e9bd f4bc 470c 9abc 49ab ccba d1cb d7bc
00000030: 0e9d c4bb 7c30 d5b9 9530 9a3c 266b 07bc
00000040: e67e 10bc c706 0a3d 71fe 78bd e249 bfbd
00000050: ff3e a63c 026e 033d 7d33 de3c 7bd2 97bd
00000060: ac67 e43c 55e6 87bd 361e bfbd 1af3 a73c
00000070: 3d73 333d 3735 25bd e329 3c3d 5193 d73d
00000080: be4e 803c d6fe e7bb 3eb8 863c a7ac 6f3c
00000090: d349 cdb9 7585 3bbd 3660 80bd b742 19bd
000000a0: 5ad8 af3c 62ad 14bd 2b19 a4bc adf8 86bd
000000b0: c416 7cbc 8d36 7a3c 2181 f1bc a111 68bc
000000c0: a3b9 11bb afcb 76bd 9cb3 0dbd ae45 30bc
000000d0: 6e80 b93d e9e7 a3bc 5407 b0bd e299 35bb
000000e0: 935b 1a3a fecd 7c3c d018 f2bd 97c8 893d
000000f0: b479 4338 8bec 9d3d 723c 8ebb af24 47bd
00000100: 0c6f d8bc 7d97 7fbb 9fb6 be3c 993a 40bd
00000110: edde 633c f2bf c33c 3862 ae3b 2358 323d
00000120: b50b 5abc 4657 d5bc b0ce dbbc 3993 d6bc
00000130: 18ab d2bc 547e 363b bdf2 b1bc 9c74 4f3d
00000140: f307 e23c b47f c0bc 51e8 623c c6c4 283d
00000150: 6cac 2c3d 2e1b 053d ec85 87bb 53b8 b33c
00000160: e0ee 4f3c a406 29bd a39d 363b 5493 92bd
00000170: 2ffe e23b f46e d7bc e74a 483d b042 543d
00000180: c98a 873b f958 ebbb 36ca 08bc 3f51 9b3d
00000190: 0ea0 503d 7587 89bb 312c 913d 5a11 ce3d
000001a0: 89af 9f3d d8a9 94ba 4634 4b3d 22ed dbbb
000001b0: b1af a63c 747d a8bd f30b 08bd 2470 4b3d
000001c0: ae7e 9cbd 56d7 8bbc fe87 183d 91b2 45bc
000001d0: 6072 6d3d d565 a7bb 1428 e6ba f0ab 69bd
000001e0: 049b 5fbc 9a73 42bd 232c 2f3d 52aa f03b
000001f0: c53c 02bd 3480 4a3b 1e81 573b 1df8 1ebd
00000200: 6148 0e3d e99b bd39 99c2 1a3c 6f60 b33c
00000210: 0532 f13b 7819 7f3d 3cb6 1fbd 735e 903c
00000220: 536c 0c3c df66 a3bb 7b35 1bbd 5e12 e23c
00000230: c50c 8b3a b8fe e83b b2d5 2f3b d51d 58bd
00000240: 60d7 243b e991 c53c 9aff c53b 3fe5 a0bc
00000250: a8f5 66bd 0d10 983d db36 063d 2994 39bd
00000260: 9c45 20bd 34ea b13c 5565 073d bc37 d0bc
00000270: 76e1 b43c 536d 663d 7527 6d3d 87e7 ed3b
00000280: 5ffb 003c e7d9 bdbc 27a9 86bc af69 453c
00000290: 7190 c73b 3161 27bd 5e95 543d 7b79 ce3c
000002a0: cad4 04bc c7f2 8dbd 533b f83a a849 423d
000002b0: 72c9 10bc cbed 833c 3cab bebc 145b 62bd
000002c0: 59d2 cebc 7c29 4eba d1b6 05bd 87f0 103d
000002d0: 3e43 e5bc 941d 9a3d 9dee d8bc c14e 1f3d
000002e0: b60e 5a3d 1cd3 0d3c 194a 05bc 453b b8bd
000002f0: 2223 22bc 0719 e5bc ce0f 193b 3ce0 383d
00000300: 8e60 2a3c 3d1b 26bd 1011 be3c 8e84 8f3c
00000310: 30e9 16bc 671d 303d 9894 1d3d 431e 663b
00000320: fd46 703c 3dec 063c 957e 373d 35fb f3bc
00000330: e4bb 0e3d e396 873d 2dbf 193d ca14 213d
00000340: a91a 98ba 5fed 82bc ce59 efbc 243f b8bc
00000350: 089a 0ebc 5585 44bd 9e18 383d 7838 0ebd
00000360: f4dd 293d de2f e7bc 6180 d23c 8029 32bd
00000370: 3d57 0ebd 9a2c 723d 1bc5 55bb bc04 4e3d
00000380: 8072 22bd a78a 823c ded8 433d f06b 633d
00000390: 2121 433d 3986 623d e73c 1d3a bdd0 2a3d
000003a0: 7ea7 c93c abc4 833d da28 11bd cb4a 4bbd
000003b0: 160c 13bd 84b3 29bd 1089 46bd c547 12bd
000003c0: aca1 1abd 7223 01bd 2a52 68bc 067c 07bd
000003d0: edcc eebc 5b85 49bb bf77 36bd 84d1 d33b
000003e0: 0c26 a7bc 65e2 e63a 64a6 2a3d 0710 06bc
000003f0: ff50 1e3c 0405 7a3d 1200 01bd 9527 393c
0.024307135 0.040661596 -0.035885446 -0.013635861 -0.066838466 0.014176075 -0.019644642 -0.004815003
-0.029875712 -0.018804682 -0.0015615012 -0.026342304 -0.0060001677 -0.0004066265 0.018821994 -0.008265292
-0.008819317 0.03369787 -0.06078953 -0.09340264 0.02029371 0.032087334 0.02712416 -0.07413193
0.027881466 -0.06635729 -0.09331934 0.020501662 0.04381107 -0.040333953 0.045938384 0.10526145
0.015662547 -0.0070799394 0.016445275 0.014628566 -0.0003915565 -0.04578157 -0.06268351 -0.03741714
0.02146547 -0.036298163 -0.020031532 -0.065904 -0.015386287 0.015271795 -0.029480519 -0.014164359
-0.0022235892 -0.06025284 -0.034595117 -0.0107588 0.09057699 -0.020008044 -0.08595148 -0.002771013
0.00058882794 0.015429972 -0.11821139 0.067277126 4.6604968e-05 0.077111326 -0.0043407017 -0.04861897
-0.026420139 -0.0039000206 0.02328044 -0.046930883 0.01390813 0.023895238 0.005321767 0.043541085
-0.013308455 -0.026042592 -0.026831955 -0.026193248 -0.02571635 0.0027846294 -0.021722192 0.050648317
0.027591681 -0.023498394 0.013849334 0.041203283 0.04215662 0.032496624 -0.004135838 0.021938479
0.01269123 -0.0412661 0.0027864955 -0.07157007 0.0069272737 -0.026298024 0.048899557 0.05182141
0.0041364175 -0.007182237 -0.008348992 0.07583856 0.05093389 -0.004197056 0.07088507 0.10061903
0.077971525 -0.0011342121 0.0496104 -0.006711618 0.020347448 -0.08227053 -0.03321452 0.049667493
-0.0764135 -0.017070454 0.037239067 -0.012066499 0.057970405 -0.005108575 -0.0017559552 -0.057048738
-0.013647798 -0.047473527 0.0427667 0.0073445225 -0.031796236 0.003089917 0.0032883356 -0.038810838
0.034736995 0.0003616505 0.00944581 0.021896569 0.007360699 0.06228015 -0.03899215 0.017623162
0.008570748 -0.0049866284 -0.0378928 0.027596649 0.0010608664 0.007110443 0.0026830253 -0.052762825
0.0025152788 0.024117427 0.006042433 -0.019640563 -0.05638662 0.074249364 0.032767158 -0.045307312
-0.039128885 0.021718122 0.033055622 -0.025417201 0.022080164 0.056256603 0.057898957 0.007260266
0.007872432 -0.023175193 -0.01643808 0.012049123 0.006090217 -0.040864173 0.05190026 0.02520441
-0.0081073735 -0.06931072 0.0018938578 0.047433525 -0.008837091 0.0161046 -0.02327501 -0.05526264
-0.025246786 -0.0007864458 -0.03264505 0.035385635 -0.027986165 0.07525173 -0.026480967 0.038893465
0.053236686 0.008656289 -0.008135342 -0.0899568 -0.009896072 -0.027966036 0.0023355368 0.04513572
0.010398997 -0.04055332 0.023201495 0.017519262 -0.00921087 0.04299679 0.03847179 0.0035113252
0.014665362 0.0082350345 0.044798452 -0.02978287 0.034847155 0.06620576 0.037535835 0.039326467
-0.0011604625 -0.015982328 -0.029217627 -0.022491045 -0.008703716 -0.047978718 0.04494535 -0.03472182
0.041471437 -0.028221067 0.025695981 -0.04349661 -0.034751166 0.059124567 -0.0032618705 0.050297484
-0.039659977 0.015935255 0.047814243 0.05552286 0.047639016 0.055303786 0.000599815 0.041702975
0.024616 0.06433996 -0.03543935 -0.049631875 -0.035900198 -0.041430965 -0.048470557 -0.035712976
-0.03775184 -0.031527944 -0.014179746 -0.033077262 -0.02915045 -0.0030749652 -0.044547793 0.006464185
-0.020403884 0.0017615078 0.04166259 -0.008182532 0.009662866 0.06103994 -0.031494208 0.011300941

module.lownet.ending.bias f4 [3]
00000000: 536b 9e3d 6a70 3d3d d292 3a3d
0.07735314 0.046249785 0.045550175

module.lownet.encoders.0.0.beta f4 [1, 32, 1, 1]
00000000: cfe1 7dbd 5544 fb3d 85f8 8c3c 7b05 823d
00000010: dc13 803d 846a 993d 4bf3 baba d125 2b3d
00000020: a1cc ccbc e715 78bd b847 7dbc 0ed4 34bd
00000030: c541 72bd 838a 92bd d0a7 c739 5fa7 92bc
00000040: 8ed2 03bd 9638 79bd 5d7d a0bc 1363 213c
00000050: 0fe3 883d 4bf4 2abd 2441 debc 968d 18bc
00000060: 4733 813d a7c1 67bd ec41 c03d 3e05 fdbc
00000070: 0469 07bd 8225 65bd 986a 033b b388 2a3d
-0.061982926 0.12268893 0.017208347 0.063487016 0.06253788 0.07491019 -0.0014263181 0.04178411
-0.024999918 -0.060567763 -0.015458994 -0.044147544 -0.059144754 -0.07155325 0.00038081268 -0.017902074
-0.032183222 -0.06084498 -0.019591028 0.009850281 0.06683933 -0.041736882 -0.02713067 -0.0093111005
0.063086085 -0.056581166 0.093875736 -0.030886289 -0.033059135 -0.055943973 0.0020052548 0.041634273

module.lownet.encoders.0.0.gamma f4 [1, 32, 1, 1]
00000000: 0000 0000 0000 0000 0000 0000 0000 0000
00000010: 0000 0000 0000 0000 0000 0000 0000 0000
00000020: 0000 0000 0000 0000 0000 0000 0000 0000
00000030: 0000 0000 0000 0000 0000 0000 0000 0000
00000040: 0000 0000 0000 0000 0000 0000 0000 0000
00000050: 0000 0000 0000 0000 0000 0000 0000 0000
00000060: 0000 0000 0000 0000 0000 0000 0000 0000
00000070: 0000 0000 0000 0000 0000 0000 0000 0000
0.0 0.0 0.0 0.0 0.0 0.0 0.0 0.0
0.0 0.0 0.0 0.0 0.0 0.0 0.0 0.0
0.0 0.0 0.0 0.0 0.0 0.0 0.0 0.0
0.0 0.0 0.0 0.0 0.0 0.0 0.0 0.0

module.lownet.encoders.0.0.conv1.weight f4 [64, 32, 1, 1]
00000000: de80 ff3d a5b5 d1bd 89f1 2f3d 111e 393e
00000010: 3797 a1bd b01e 413c e8d8 19be c367 87be
00000020: ec9e 22be 18ed 903b 601d 0cbe 0fb1 0ebe
00000030: 29ba 3f3e 0fe1 403e 8121 10bd e39c 8d3d
00000040: 7f36 343d aa0a e63c b05c 79be 0638 20be
00000050: 1f2a d8bd dadd 84be 25e0 b2bd e473 7ebd
00000060: 6610 37be cabc b63d 0fa4 263e 2f9e 24bd
00000070: 376b 933c f921 06bc f6eb 0fbe 0246 d43d
00000080: 46c1 0ebe c098 443d b515 1cbd 0930 10be
00000090: ee6b 423e 5b05 043e 1f7f 08bc eed5 293e
000000a0: 38b1 7d3d cb56 9dbc 9b82 de3d d0e6 093e
000000b0: 8a3d d23d 8524 e93d c10e 93bd d56d 393e
000000c0: 8dab c53c a916 21be 23f3 343e 381c 213e
000000d0: 30a1 813c 7750 6e3e 9072 e2bd f844 38bd
000000e0: f7d4 e5bb cfe8 abbd b592 263e 05f9 85be
000000f0: a97f 06be cc63 76bd cc65 963d 62e6 323c
00000100: 5632 e9bd 895f 36bd 3eec 9abd 7d2e 8ebd
00000110: 1b76 5ebe 14bc a3bd af90 1c3d e824 2f3d
00000120: 615b 2d3e 5a24 20bd fce6 8cbd d1d7 873a
00000130: 85f5 c9bd 3569 6c3d 25ca 4b3d 8dd8 24be
00000140: 39e2 703e 7568 5e3d beae d2bd 7d1c c93c
00000150: ad67 0cbe 5279 25be 34c1 583e 9c87 a3bd
00000160: 19c5 203d 2a3f 2d3c 87ba cebd 76ca 4d3d
00000170: b27b 4d3e cfb6 88bd 655f e6bc 64ec f33d
00000180: a61b 743e 4c61 6cbc 82dd b7bd 5ee2 773e
00000190: f7e5 073d 0ecc 913c 0003 ccbc ad3c 47be
000001a0: 2f39 7dbd 9d76 95bd 2d40 593c 1c08 21be
000001b0: 9986 afbb 6a39 2c3e 1804 e33d bded de3d
000001c0: 6f4b 54be 19a3 16be f7d9 f6bd a91a 783d
000001d0: 7405 b23d 01ea 84be fd09 13be c17c 963e
000001e0: daa7 183e c23e 57bc 5fa7 333e 3e61 8b3d
000001f0: c150 5bbe b0db 7a3e cb0c f5bd 35f6 993d
00000200: 652b 8fbd 70a2 d13d f438 c3b8 28cf b8bd
00000210: 284a 8a3d ddd2 5fbd 47e9 f0bd 0698 223e
00000220: 4a6e cfbc 3864 b5bc 47a5 16bd cb51 ec3d
00000230: ef00 0abe 1834 f83d 1158 de3d e284 fd3d
00000240: 5443 643c a625 8fbd e717 ca3d 2839 143e
00000250: e5f3 bfbd a1f2 923d 861b 743d 1cbf cbbc
00000260: 550d 36be 5fc9 18be a10a 323e 1773 c03d
00000270: f5eb 0cbd d24d 2f3c 5915 193d ce4c 35be
00000280: 6d49 0abe d9b3 813d d2a8 6d3d 55c4 01be
00000290: 2c4c 8f3d 6961 33bd ea29 9bb9 f489 613e
000002a0: fe68 6c3d b246 dabc 44fc 3c3e 6af8 b1bd
000002b0: 5ac7 dd3d c5de 27be a5f8 e23d 648f d73d
000002c0: a0e6 363d 6bdb 283e c2cb ed3d 5d3f 723d
000002d0: b9dc 193e f7a6 693e 84bc 6cbe bcb1 12be
000002e0: 3fe5 a63e 3adf 10bc e112 283e 4603 b1bd
000002f0: 0b39 2dbd 9915 6b3d ba2a 943e 3ab0 47be
00000300: 7ffc 43bd 7c16 383e 886e 86bd dcba c83d
00000310: a27b 32be 4531 c6bc 0946 bfbc 7095 3fbe
00000320: 1f39 bebc 2c18 0dbe bf20 593e 576a 103e
00000330: 62b2 18be ec46 91bc 2208 073e 7558 f9bc
00000340: 73c4 a5bc ffb0 2abd a2b9 9c3d 90f6 7e3e
00000350: 53a8 09bd 5f26 04be 5c57 2d3e c6b0 bbbc
00000360: 637e 023e df48 fdbc 1d30 32bc af53 383d
00000370: e349 05be 53c8 923d b342 32be 0dde 283e
00000380: 0bd7 6dbd c92e b63d 8c94 ccbd 9527 92bd
00000390: 547f cbbc dc34 aebc b35d 1abe ff8b 77be
000003a0: 00fd 0b3d 6864 dfbd 97b4 95bd bfe8 f13d
000003b0: f08a da3b 0811 b53d a796 27be 6f6f 693d
000003c0: 07fa e53d a344 0b3e 62f5 c6bd 9ad1 87bd
000003d0: 8251 85bc 2604 02bd b5e2 ba3d 60d2 27bd
000003e0: 7ed0 3ebe 8e04 4b3e c312 89bd a894 833e
000003f0: d8b1 703e 08aa 7fbc dddb 23be 4419 4dbd
0.12475751 -0.10239724 0.042954955 0.18077876 -0.0789017 0.011787102 -0.1502415 -0.2644635
-0.15880936 0.004422795 -0.1368308 -0.1393473 0.18723358 0.18835853 -0.0351882 0.069146894
0.043997284 0.028081257 -0.24351764 -0.15646371 -0.10554909 -0.2595051 -0.087341584 -0.06212224
-0.1787735 0.089227274 0.16273521 -0.040189918 0.01799546 -0.008186811 -0.14054856 0.103649154
-0.13940915 0.047997236 -0.03810664 -0.14080824 0.18986484 0.12892668 -0.008331089 0.16585514
0.061936587 -0.019206425 0.10864755 0.13466954 0.10265644 0.11383919 -0.071805485 0.18108304
0.024129653 -0.157313 0.17670874 0.15733421 0.01582393 0.23272882 -0.11057007 -0.04498765
-0.007013913 -0.08394014 0.16266902 -0.2616655 -0.13134636 -0.060153767 0.07343635 0.010919185
-0.11386554 -0.044524703 -0.07564591 -0.06942461 -0.21724741 -0.079948574 0.03822392 0.042759806
0.1692939 -0.039097168 -0.06879994 0.0010364001 -0.09861282 0.05771752 0.049753327 -0.16098233
0.23523797 0.054298837 -0.10287236 0.024549717 -0.13711424 -0.16159561 0.21167451 -0.0798485
0.039250467 0.0105741415 -0.10094171 0.05024191 0.20066717 -0.06675493 -0.02812166 0.11910322
0.23838672 -0.014427494 -0.08977796 0.24207446 0.033178296 0.017797496 -0.024903774 -0.1945674
-0.061822113 -0.07298014 0.01325993 -0.1572575 -0.0053566215 0.16818777 0.11084765 0.10885189
-0.207319 -0.14710654 -0.12053292 0.0605723 0.08692446 -0.2595978 -0.14359279 0.29392055
0.1490778 -0.013137521 0.17544316 0.06805657 -0.21417524 0.24497867 -0.11965331 0.075176634
-0.06990699 0.102360606 -9.308933e-05 -0.09023887 0.067524254 -0.054644454 -0.11763244 0.15878305
-0.025321145 -0.022142515 -0.036778715 0.11539038 -0.13476919 0.12119311 0.10856641 0.12378861
0.013932068 -0.06989603 0.0986784 0.14474928 -0.09372691 0.07175184 0.05959656 -0.024871401
-0.17778523 -0.14920567 0.17386867 0.09396952 -0.034404714 0.010699706 0.037373874 -0.1770508
-0.13504572 0.06333131 0.058022328 -0.12672551 0.069969505 -0.04379407 -0.00029595132 0.22025281
0.057717316 -0.026645038 0.18455607 -0.08689959 0.10829039 -0.16393574 0.110825814 0.105253965
0.044653535 0.16489951 0.11611129 0.05914246 0.15025605 0.22817598 -0.23118788 -0.14325613
0.32596776 -0.008842284 0.16413452 -0.086432025 -0.04229073 0.057393644 0.28938848 -0.19500819
-0.04784822 0.17977327 -0.06564051 0.098012656 -0.17429975 -0.024193415 -0.023348825 -0.1870935
-0.023220597 -0.13778752 0.21203898 0.14103065 -0.14911798 -0.017734013 0.13186696 -0.030437687
-0.020235276 -0.041672703 0.07652594 0.24898744 -0.033607792 -0.12905262 0.16927856 -0.02291144
0.12743525 -0.030918537 -0.010875729 0.045001682 -0.13016467 0.07167115 -0.17408256 0.16490956
-0.05806641 0.08895642 -0.099892706 -0.07136456 -0.024840988 -0.02126544 -0.15074806 -0.24174498
0.034176826 -0.10907823 -0.073098354 0.11811971 0.0066693947 0.08841139 -0.16366063 0.056991037
0.112293296 0.13600402 -0.09714772 -0.06631775 -0.016274218 -0.031742238 0.09125272 -0.040972114
-0.18634221 0.19825956 -0.06693032 0.25699353 0.23505342 -0.015604503 -0.1600184 -0.050072923

module.lownet.encoders.0.0.conv1.bias f4 [64]
00000000: 7eef f53d 6a94 e23c 3a94 a1bd 7c6f 5abe
00000010: 248a 253e 06bc e8bd 7bf4 f8bd 1c46 6ebd
00000020: 1427 1dbd 1dcd 333e 50b5 d43d e00b 33bc
00000030: 595c b43d 4440 af3d 0c16 32be 93bb 5e3d
00000040: e3ee d83d 6e85 98bd af12 cebd 1ae1 30be
00000050: 2b14 3abe 7693 913d 3a96 1abe 4b60 bebd
00000060: c933 833c 1986 8c3d 6611 4d3d 7a24 19be
00000070: dd4b 983d ab60 393d 3ee6 9e3d 9588 29bb
00000080: d0b2 cfbd 5be3 56bd 3e19 a43d 916e b13d
00000090: bb7b 17ba ffe4 1abe 3f51 8d3d 98af 103e
000000a0: 7858 553e 02d5 3d3e 1d3a d43d 7d89 f9bb
000000b0: d539 193e 2132 b3bb 71f2 e93d 4bd8 5d3e
000000c0: b6be 44be e2f6 093e 6479 a4bb 1c7d 4ebe
000000d0: ac2b 193c 1eaa 353e a97e 01be 96f0 c13d
000000e0: 71a6 8f3d 941e 9d3d 685f afbd 118c 2cbc
000000f0: b904 ff3c 882b 9bbd 7b1e a43d 3957 ecbd
0.1200857 0.02765866 -0.078896 -0.2133159 0.16165978 -0.113639876 -0.12156006 -0.05817233
-0.038367346 0.17558713 0.10386145 -0.010928124 0.088066764 0.085571796 -0.17391223 0.054378103
0.10592439 -0.07447325 -0.10062157 -0.1727337 -0.18171756 0.07108204 -0.1509637 -0.0929571
0.016015904 0.068615146 0.05006542 -0.14955321 0.07436345 0.045258205 0.07758759 -0.0025868763
-0.10141528 -0.052462917 0.08012627 0.08663667 -0.000577863 -0.15126418 0.06900262 0.14129484
0.2083453 0.18538287 0.10362647 -0.007615267 0.14963467 -0.0054686223 0.11423195 0.2166454
-0.19213375 0.13473085 -0.0050193537 -0.20164913 0.009348791 0.17740676 -0.12645973 0.09469716
0.07014168 0.07671848 -0.08563119 -0.010531441 0.031130182 -0.07576662 0.08013626 -0.11540074

module.lownet.encoders.0.0.conv2.weight f4 [64, 1, 3, 3]
00000000: 4b16 bd3e 0204 59be 5d76 3abb cc83 063d
00000010: 511d 9d3d 396e c5bc e67a 3e3d 525b b63e
00000020: 840c e83d 3a59 1dbe c752 7f3e 2062 1b3e
00000030: ca63 c33e bbac 9d3e 6377 833e 6b95 edbd
00000040: f3a6 893e 584f 92bd 684b e33d 0cd2 a63e
00000050: 50ee 33be 8f33 cdbd b1c3 ac3d ee01 fbbc
00000060: 7e55 243e f2fc b83e 2db2 913e e706 183d
00000070: 6b62 fe3d a27c 113d b258 80be 2bb7 b7be
00000080: 38f1 abbe 4722 77bd 2c84 1fbd da94 8ebd
00000090: 9cd1 343d a8f2 50be 5cff 11be 3ef3 0d3e
000000a0: 6733 c43d 193e 4ebe 3548 8f3d 07b1 1a3d
000000b0: 4c68 84be f14d aebc ac77 8d3e d90f 893e
000000c0: 849e 8c3e 4af1 c33e 6913 2d3d 54ac 5fbd
000000d0: 0595 b13e 7b76 85bd e89e 973e 954a 87be
000000e0: a1eb 543e b772 9e3e bde4 fc3d f72e 423d
000000f0: c6a1 f93d 0aa5 7abe e4aa 64be f025 24be
00000100: ef3c 8dbe 685b 5bbe a491 bcbe 2289 8cbe
00000110: 6605 8dbe e29a 8ebe adce 6e3d c44f 80be
00000120: e842 813e 56ef a9be dd48 acbe 1039 c5be
00000130: 1c27 c6be 25df 093e 64e6 59be 99ce a33d
00000140: a426 7c3c a064 08be 13e1 8dbe d50e aabe
00000150: 4a18 063e 5e6d 333e 0538 47be 66b4 903e
00000160: 5c47 56be 1341 d7bd 15f4 953e ea8b 74bc
00000170: edbd 0bbd e6bf 943d 5b1d 8cbd 6f63 eb3d
00000180: 0375 923c 021f 133e bfd0 7f3e bf1d 973e
00000190: 0b02 56be b62f 943d e08c 8bbe ee19 233d
000001a0: 1a41 8abe 83a4 96bd ca83 543e ac21 36be
000001b0: b002 8dbe ccf0 b5be 363b c4be ae4a dd3d
000001c0: 7e6e 523e 2048 12be c325 373c c1a7 723e
000001d0: 27ba 843e 2248 4ebd a27a 273c 2d80 4abd
000001e0: 1eee 83bd de99 933e 718b 953d b51c 783e
000001f0: d943 2d3e e309 4b3e 009a 21bc ed2e 423e
00000200: e35a d83d 107f d2bc 9f45 463e 289f 3e3d
00000210: 474f 9f3e f2df 7e3e 2da6 433e 209a 173e
00000220: ebcb 7c3e 8f18 903e 03d2 44be 71a1 c9bc
00000230: cd4c 323a 36b9 893e e6b9 0a3e f448 16be
00000240: 6fcd b73d 66e3 513e 4562 dcbd fdfd 0f3e
00000250: c821 90be b4d9 683e 840e db3d 935b 573e
00000260: c5fd af3e c4e3 633e dfba f0bc 2eb5 b63e
00000270: 8f44 893e 7bda a33e a0bb 51be fe2a 0bbe
00000280: aa75 19be c4d8 293e 4ecc 743d 8f06 0cbe
00000290: 8ee8 9f3e 443d 4fbd 62ce 68be 7fd3 69be
000002a0: 4846 533e 69f7 103e 8be0 353e fec9 93be
000002b0: 3763 d4be 29b6 dcbe 7c8c c7be 93e6 c8bd
000002c0: 0bf5 af3d f704 9dbe cd68 ecbd 95d0 4c3e
000002d0: 876e 93be 91d2 0cbe bc06 863e 7084 a73d
000002e0: 6f4c 6e3c 9148 9f3d e7fc 503e 55b8 cc3d
000002f0: e411 a3be e799 87be 5d51 5c3e 66ec 953e
00000300: d380 1d3d 4cfc 063e 03f8 653e 1a60 1fbe
00000310: 41dc 88bd 7700 ac3d 6a39 2a3e b0ed 30bd
00000320: fe9e 433d be1f 2dbe e8e8 d13d 4c78 3ebe
00000330: af09 5fbe f48a 48be f4c3 2c3c 1527 74be
00000340: c09c 373e 0a6e 9a3e 9b2f 763e 344d d53d
00000350: 9a67 b43e a55b 74bd 2af4 b23d 3519 8b3c
00000360: cbe5 163d 4316 96be 92af 9fbd 6daa dfbd
00000370: f5d3 6f3e 6c98 583e 535d bbbe 2d8d c8be
00000380: 29d8 cdbe cf61 af3e ba9a 083e 22f2 b4bb
00000390: 9729 27bd 8e85 973e 2fea 603c 44ae 8b3e
000003a0: c269 2ebe 7f03 313e 7a9f cc3e b862 2f3e
000003b0: dfa8 21be a34f e73e f2d7 d8bc 008d 8fbd
000003c0: b1d3 bd3e 7b36 983e 1209 05be 7a9a 87be
000003d0: 0c6a 903e 7884 4c3e 1738 2dbe 9def 7e3e
000003e0: bd51 f2bc bcdf 3f3e 9c7a a93d c4cf 4c3e
000003f0: c06e 30be 2e1d bebe ccb8 99be c5cd a7bd
0.3693107 -0.21192935 -0.0028451898 0.032840535 0.07671607 -0.02410041 0.046503924 0.35616547
0.11330512 -0.15366068 0.24933921 0.1517415 0.3816207 0.30795845 0.25677022 -0.11600765
0.26885185 -0.0714404 0.11098367 0.32582128 -0.17571378 -0.100196 0.08435763 -0.030640569
0.16048238 0.36130482 0.2845625 0.037115958 0.124211155 0.03551925 -0.2506767 -0.35881934
-0.33582473 -0.060335424 -0.03894441 -0.06961985 0.04414521 -0.20405066 -0.14257568 0.13862321
0.09580117 -0.20140876 0.06996194 0.037766483 -0.25860822 -0.0212774 0.27630365 0.26769903
0.27464688 0.38270026 0.04225484 -0.054607704 0.34684005 -0.06516739 0.29613423 -0.2642409
0.2079301 0.30946895 0.12348316 0.04740807 0.12189059 -0.2447702 -0.22330815 -0.16030097
-0.2758555 -0.21421587 -0.36829865 -0.27448374 -0.2754318 -0.2785254 0.05830257 -0.25060856
0.25246358 -0.3319041 -0.3364934 -0.38520098 -0.38701713 0.13464029 -0.21279293 0.0799839
0.015390072 -0.13319635 -0.2771078 -0.3321444 0.13095203 0.17522189 -0.19454964 0.28262633
-0.20925659 -0.10510459 0.29287782 -0.014925936 -0.034116674 0.07263164 -0.068415366 0.11493575
0.017878061 0.14367297 0.24981974 0.29514882 -0.20899217 0.07235663 -0.27255917 0.03981965
-0.27002794 -0.07355597 0.20753399 -0.17786282 -0.27541113 -0.35535276 -0.38326424 0.1080526
0.20549962 -0.14285326 0.011178437 0.23696806 0.25923273 -0.05036176 0.010222109 -0.049438644
-0.064419016 0.2882833 0.07301987 0.24229701 0.16920413 0.1982799 -0.009863377 0.18963213
0.1056421 -0.025695354 0.19362496 0.046538502 0.3111517 0.24890116 0.1910636 0.14804888
0.24687164 0.28143737 -0.19220738 -0.024613114 0.00068016053 0.26899117 0.13547477 -0.14676267
0.0897473 0.20496902 -0.10760931 0.14061733 -0.28150773 0.22739297 0.10696128 0.21031027
0.34373298 0.22254854 -0.029385982 0.35685104 0.2681012 0.32002625 -0.2048173 -0.13590619
-0.14986292 0.16586596 0.059765153 -0.13674377 0.31232113 -0.050595537 -0.22734979 -0.22834586
0.20632279 0.1415688 0.17761438 -0.28865045 -0.41481945 -0.43107727 -0.3897437 -0.098096035
0.0859166 -0.3066785 -0.11543427 0.20001443 -0.28795263 -0.137522 0.26177013 0.08179557
0.01454459 0.07777513 0.20408975 0.09996096 -0.31849587 -0.26484606 0.21515413 0.2928192
0.038452934 0.13182181 0.2245789 -0.15564004 -0.06682635 0.08398526 0.16623464 -0.043195426
0.04775905 -0.1690664 0.102495015 -0.18600577 -0.21781038 -0.19584256 0.010544766 -0.23843034
0.17930889 0.30162078 0.24041598 0.10415116 0.35235292 -0.05965771 0.08737977 0.016979793
0.03684024 -0.2931386 -0.07797159 -0.10921178 0.23420699 0.21151894 -0.36594638 -0.3917021
-0.4020398 0.3425431 0.13340273 -0.0055220285 -0.040811148 0.29594082 0.013727709 0.27281392
-0.17032531 0.1728649 0.3996542 0.17127502 -0.15787075 0.45177945 -0.026470158 -0.070093155
0.3707557 0.29729065 -0.12991741 -0.26485044 0.28205907 0.19972408 -0.16915928 0.24896093
-0.029579991 0.18737692 0.08275339 0.20001131 -0.17229748 -0.37131637 -0.300238 -0.08193544

module.lownet.encoders.0.0.conv2.bias f4 [64]
00000000: 3e38 a0be 346b aebe 7e6a a83e d081 4dbd
00000010: dfbe 753c bf85 043e 476e 9fbe d25f 24bd
00000020: 85fe 4e3e 0190 b6bc 5906 993e 0e38 d1bd
00000030: 96e8 78be 8620 31bd 0cb5 243e 6234 09be
00000040: d747 93bc 0c35 41be ab11 a93e c065 f1bd
00000050: ffd4 1fbe 5e15 753d 3c14 e23a e33c 6abd
00000060: 8d77 9abe d550 6d3e 2788 8a3e 4d70 6a3e
00000070: dd7b 99be ec39 1cbe c0a2 50be a4f1 d83d
00000080: c654 4dbd ec58 00be fa50 ae3d efa5 68be
00000090: a154 41bd f186 17bd 7b2e 82be 65b9 a6be
000000a0: 574d 1a3d fd0f 093e 4956 18be 71f8 b2bc
000000b0: fd41 0b3e 7af8 a1bc e148 583d 6738 babe
000000c0: 3bcd 96be 3c5f 78be 6388 59be 2a34 723e
000000d0: a44e cfbe 8cfa f03c a96f 263c 099a 823e
000000e0: 1999 633e 9df7 23bd 4992 953e 1855 42bd
000000f0: 03bb 1a3e 5601 86be 5931 68be 0c1e 41bd
-0.3129291 -0.34066164 0.32893747 -0.050172627 0.0149991205 0.12941645 -0.31138822 -0.040130444
0.20214279 -0.022285463 0.29887655 -0.1021577 -0.24307474 -0.043243907 0.16084689 -0.13398889
-0.017978592 -0.18867892 0.33021292 -0.117869854 -0.15608595 0.05983483 0.0017248462 -0.057186972
-0.30169335 0.23175366 0.27057 0.22894402 -0.29977313 -0.1525647 -0.20374584 0.10592964
-0.050129674 -0.12533921 0.08511539 -0.22719549 -0.04719985 -0.036993925 -0.25426087 -0.3256332
0.037671413 0.13385005 -0.14876665 -0.021846982 0.13599391 -0.019771803 0.052803878 -0.36371157
-0.29453453 -0.24255079 -0.21243434 0.23652712 -0.40489686 0.029416345 0.010158458 0.25508144
0.22226371 -0.040031064 0.2921317 -0.047444433 0.15110402 -0.26172894 -0.22675075 -0.047147796

module.lownet.encoders.0.0.conv3.weight f4 [32, 16, 1, 1]
00000000: 0fcf 8f3d 02cc 53be 6111 04be 6b84 7ebc
00000010: ac4f 053e 96b0 b1bd e230 9dbe 6b90 133e
00000020: bb1f 4abd 7b8c 88be b2d7 1fbe 64b4 8e3e
00000030: 542a 2d3e 59c2 133e f544 a73d 57ee 6a3e
00000040: 6220 37be 3505 a03e c776 e9bd 0683 0b3e
00000050: 27ab 4fbe bce3 e93d ebdc 6cbe 5ec2 6e3d
00000060: 910e 413d ef5f 883e f635 c13d 2e8a 423d
00000070: ea72 0dbc 0120 d53d fbdc 17be c6a6 71bd
00000080: 6158 b1bc c388 433d 385a 2ebd 6e57 8abd
00000090: 905d 73be 29ef ab3b e610 f23c c08a d73b
000000a0: 104e 0dbe eedf 3cbe c886 51bc 585e 40be
000000b0: 7725 623e f88f 60bc 6852 0d3d a240 c33d
000000c0: 42e5 bfbd ede4 733d fbee 123e a6bd 503d
000000d0: 2bcb c43d 1283 593e 3c04 94be 9365 61be
000000e0: c12e 5e3d e386 583e ba1b 61bd 306c 273e
000000f0: 66d8 8bbd 39a9 123d bdd8 96be 5acd 7dbe
00000100: 73f0 2e3d 8bd8 003e 5371 833e b460 f73b
00000110: 4ea9 30be 7d79 50bd 4860 83be 0c48 493d
00000120: 91dd bc3e addc 063e 9982 783e f0c3 16be
00000130: 5aa9 993d d2f3 843e 74f1 9c3e f6c6 86be
00000140: 3d2f 35bd 7aa1 1dbe 07a2 3b3e 87f6 543d
00000150: 83fe de3d df4b 163d 3c0b e7bd 1148 293e
00000160: 23d5 3dbd 5b9d f6bd 0cb4 1ebe 43b4 74be
00000170: f8bb 84be 2531 64ba da6c 2abe e934 77be
00000180: bf04 14be 9099 1c3d 659e 983d 830c 87bc
00000190: 21a9 55be 8fb0 25be 9739 49bd a151 663e
000001a0: ee9c 48bd 0911 fabd 1156 cf39 a1d0 1ebe
000001b0: 6cbf ac3c 0e1d 403d 4bf8 d53d 6faa 2d3d
000001c0: 7190 54be 614c 8fbe 892d fcbc 520c 863e
000001d0: d392 59be cd5b 133e 0954 2dbd dcbe eb3c
000001e0: 86dc 1a3e f42f a13d 4046 1d3e e540 e03d
000001f0: e009 6e3e 2c0b 25be 84d3 97bd 76e6 14bb
00000200: add5 75be 34b6 a13d 56ff 9ebe 5f14 253e
00000210: 759c 92be 58e4 963d 2604 b83e 8259 283e
00000220: 12d9 353e b9b1 423e 164c 303e 179c 66be
00000230: 8ec2 553e d9ae 1dbe df81 043e 6526 3bbc
00000240: caa5 dc3d f396 49be ce53 8b3e 001c e23d
00000250: d145 ac3e 176d 4cbe 46d9 223e b069 78bd
00000260: 200d 813c 2f63 e5bd 8655 2ebd d897 21be
00000270: a025 d4bd 69e3 a7bc 52f4 0cbe f751 e93d
00000280: 73cb 70bd 5673 1d3e 55f9 91bc 05ee 19be
00000290: 2ff5 7ebe c808 9b3d 3177 6b3e b402 bf3d
000002a0: 8dd3 49bd ac33 24be 541a 083d 80f1 9a3e
000002b0: f582 36be 411c 16be 15ef a23d 1894 333e
000002c0: c595 37be d202 06be b79c 8f3d 0796 4fbd
000002d0: 6903 68be 6d37 04bd e68c 8fbe 1a1f e7bc
000002e0: 0453 6d3e 3a31 25be ac19 ed3d 21ca 073c
000002f0: 52e3 243d ce15 0f3d 7655 153e 3b41 70be
00000300: cf96 103c acc0 a1bd b4d1 eebd d0e5 943e
00000310: d76d 02bd ba59 a43e 9146 b23e a7f8 383d
00000320: a359 13be 093b 92be 3003 28be dad3 4a3e
00000330: a712 acbb b488 203e 1ddc 823e a815 fc3d
00000340: 14c8 003e 1720 5d3e 9af9 26be 1f35 873e
00000350: 65a5 36bd 6ebd f43d 8712 35be efaf 223d
00000360: f284 53be d10e b43c 6849 0dbe 19a9 a33d
00000370: 9463 553e d028 56be 5caf 81bd da41 333c
00000380: 296e 5f3e effe 91bd 65f5 d5bd 6d3f dabd
00000390: 9d1c 5a3e 9fa2 853e 4caa 4e3e 5d09 ea3d
000003a0: e36d bcbd c9ff 683e ae85 90bd 050f 453c
000003b0: 8f93 0cbd f4ea 91bd 312c 3cbd 4d4d 13bd
000003c0: d863 8a3c 2267 4f3d 752b 91be f426 8c3e
000003d0: d0d8 6d3d 732d 8c3e 3def 63be ce6d 87be
000003e0: e9a1 003b fb05 403e 56be 283e 0f8b 783d
000003f0: 0d08 f83d 7077 d6bd e743 133e 607e 823e
0.07021915 -0.20683292 -0.12897255 -0.015534501 0.13018674 -0.08676259 -0.30701357 0.1441056
-0.049346667 -0.26669678 -0.15609625 0.27872002 0.16910678 0.14429606 0.081674494 0.22942482
-0.17883447 0.31253973 -0.11399608 0.136242 -0.20280133 0.1142039 -0.23131149 0.05829083
0.047133032 0.26635692 0.0943412 0.04749506 -0.008633355 0.10406495 -0.14830391 -0.05899694
-0.021648588 0.047737848 -0.042566508 -0.06754957 -0.2376616 0.005247016 0.029549073 0.0065778196
-0.1379931 -0.18444797 -0.012788482 -0.1878599 0.22084604 -0.0137062 0.034502417 0.09533812
-0.09369899 0.059544493 0.14348976 0.050962113 0.09609064 0.21241406 -0.2890948 -0.22011404
0.054243807 0.21145205 -0.054958083 0.16349864 -0.06828384 0.035805915 -0.29462233 -0.24785367
0.04270978 0.12582605 0.25672397 0.0075493697 -0.17252085 -0.05089711 -0.25659394 0.049140975
0.36887792 0.13170119 0.24268569 -0.14723182 0.07503004 0.2596727 0.30652964 -0.2632367
-0.044234503 -0.1539363 0.18323527 0.05199292 0.10888388 0.03669345 -0.1128144 0.16531397
-0.04634584 -0.12041732 -0.1549837 -0.2389689 -0.2592466 -0.0008704833 -0.16643086 -0.24141277
-0.14454935 0.038232386 0.07452086 -0.016485458 -0.20865299 -0.16180633 -0.049127188 0.22492076
-0.048977785 -0.122102804 0.0003954624 -0.15509273 0.02108737 0.04690271 0.10447749 0.042398866
-0.20758225 -0.2798796 -0.030783432 0.26181275 -0.21247415 0.14390488 -0.04231647 0.028777532
0.15123186 0.078704745 0.1535883 0.10949878 0.23245955 -0.16117543 -0.0741339 -0.0022720373
-0.24007292 0.078960806 -0.3105418 0.16121052 -0.28634992 0.07367772 0.35940665 0.16440395
0.17758587 0.19013108 0.17216524 -0.22520481 0.20874998 -0.1539873 0.12940167 -0.011422728
0.10773809 -0.19686489 0.27212375 0.11040497 0.33647016 -0.1996349 0.15903196 -0.060647666
0.015753329 -0.112005584 -0.04256203 -0.1578058 -0.10358739 -0.02049418 -0.13765076 0.11392587
-0.058787774 0.15376028 -0.017819086 -0.15032203 -0.24898218 0.07570034 0.22994687 0.093266875
-0.049274016 -0.16035336 0.033228233 0.30262375 -0.17823394 -0.14659216 0.079557575 0.17536962
-0.17928226 -0.13087013 0.07012313 -0.050680187 -0.22657551 -0.03227942 -0.28037184 -0.028213073
0.23176199 -0.1613206 0.11577162 0.008287937 0.040255852 0.034932904 0.14583382 -0.23462383
0.008825018 -0.07898077 -0.116610914 0.29081583 -0.031843033 0.32099706 0.34819463 0.04515901
-0.14389662 -0.28560665 -0.16407466 0.19807377 -0.005251247 0.15677148 0.25558558 0.12308818
0.12576324 0.21594273 -0.16306153 0.26407716 -0.044591326 0.11950193 -0.17682849 0.039718565
-0.20656183 0.021979721 -0.13797534 0.07991237 0.20838767 -0.20914006 -0.06332275 0.010940993
0.21819367 -0.07128703 -0.10447196 -0.10656629 0.21299978 0.26100633 0.2018215 0.11427567
-0.09200647 0.22753824 -0.070567474 0.012027507 -0.03432041 -0.07124892 -0.04594058 -0.03596239
0.016893312 0.050635464 -0.28353468 0.2737347 0.058068097 0.27378425 -0.22259231 -0.26450962
0.0019627756 0.18752281 0.16478857 0.06067949 0.121109106 -0.10472 0.14381371 0.2548704

module.lownet.encoders.0.0.conv3.bias f4 [32]
00000000: 6ce2 47be 0fb6 7abe 238a 563e 8746 9a3e
00000010: 625f 43bb ed89 6abe cdf6 82bd 8f11 34be
00000020: 3adc 693e c11a 91bd c588 d23d 82b8 95bd
00000030: a245 a0be e110 02be f145 2b3e 4f0b 163e
00000040: ad6f 863c 6577 553d 8638 d03c e5b0 37be
00000050: b401 0fbe 643a 973e 8671 4cbd 79cd 24be
00000060: 37d4 803e b65d ccbc 57a9 88bb c76d 26be
00000070: 45bb 36be 3836 323d 437f 203c dd7e 4bbe
-0.19519967 -0.24483512 0.20951132 0.30131933 -0.0029811491 -0.22904177 -0.0639473 -0.17584823
0.22837916 -0.07085181 0.10279993 -0.07310583 -0.31303126 -0.12701751 0.167259 0.14652751
0.016410673 0.052115817 0.025417577 -0.17938574 -0.13965493 0.29536736 -0.049912952 -0.16094007
0.25161907 -0.024947029 -0.0041705775 -0.16252814 -0.17844875 0.04350874 0.009795967 -0.19872613

module.lownet.encoders.0.0.sca.1.weight f4 [16, 16, 1, 1]
00000000: 5389 18be 3c40 87be 1141 84bd 83e9 473e
00000010: ea6f 0bbe 67b7 923a 0f6d 853e 0aa6 593e
00000020: 6366 acbc d6b7 d4bc 1c93 07bc fd2c 3abc
00000030: 3028 b93b ad01 81bd 61c0 5c3e bd10 4f3e
00000040: 4b90 323e 17b9 49be 86af 233d 26c9 2e3e
00000050: 80de 31bd c844 cbbc 8185 f9bd 2e49 a63c
00000060: 3987 aabd 5923 65be 2bf9 ac3e e5aa 51be
00000070: 5c7e 303e 457c 643d de49 f1bc bc0b 8b3d
00000080: fece 8f3d 31ea 5cbe 53eb 73be ac74 fabc
00000090: d0ba 253e 04da bc3e 515d 323e 62a0 513e
000000a0: 7483 10bd e799 003e 35fe 0f3e bdc9 013d
000000b0: 865b 1fbd ac4f 0d3e 1239 fbbd c3bd 8f3e
000000c0: ee0a 97bc 9b18 a6bc 61c8 e53d 56b4 18be
000000d0: 95a9 2b3e 9249 dbbd adb1 99be a2d0 813a
000000e0: b5b6 d6bd 150e 543c b4a1 72be f0a4 183e
000000f0: ce7d 91be 4b43 04be 7586 6cbe 7905 85be
00000100: 50d9 8bbd ae3f 9f3d 3a5a 2abc db3d c63d
00000110: e4d3 a13d f802 343e c96e 203d e06e 38bd
00000120: 3401 bb3d cec4 22be f46d 87bc 9a9c 0d3e
00000130: adae a43d f751 4b3e 5996 fa3d b25a bbbe
00000140: 6644 51ba 69ec 86be 26d2 fd3d ef62 c7bd
00000150: 1637 9abd 1810 653c ff23 27be 391f 503e
00000160: 5d9e e8bd f3a8 8c3e 1f64 823d 8bbf 913e
00000170: 34ae 4abd a1b9 e33d c25f 45bc e068 55be
00000180: 4c61 053e c4a2 38be 3a74 3d3b 0630 d73d
00000190: e07c 463e 2864 99bd 4a1b 80be 884a c03d
000001a0: f4bf f4bd de10 f03c 0b23 75be fd2b 433e
000001b0: 7b20 c63d 3c3d 4d3e c7bf e63c 3323 9bbe
000001c0: 0650 38be 7d84 f53d d936 02be c214 aa3e
000001d0: 1ddf 10be 06f7 6d3e df43 9abd 3a67 3b3e
000001e0: 6d91 4d3d e8c8 cfbd 4e12 703e 7be1 6f3e
000001f0: ce16 14bd a08a 2f3e 5843 db3d 3a4f a43e
00000200: d521 1abe ba8b 3dbd ab72 963e 47d2 70bd
00000210: 6baa 04bd cf93 89bd 40fa adbe b036 fdbd
00000220: 661b 493e 8adc 3c3e 5d75 b5bd ae06 263e
00000230: 19ca d33d c7c4 3dbd debf 1d3e 55f4 d8be
00000240: 8515 553e 43f5 0a3e 26e2 11be 33d3 98bb
00000250: 77d0 a63d f70d b8bd b37c 9ebd e1fd cb3c
00000260: d96d 4fbe 4148 4c3e f963 2abe e81b 143e
00000270: 86d8 30be b40a 273d f1cd f63d 5fa3 9c3e
00000280: 9f94 64be 612e 653e 5a6e 05bd d369 38be
00000290: aadf a93d 70c7 37be 0068 51bd afbc c43d
000002a0: 5971 033e 3f80 58be ea5b 4a3e 49b6 25be
000002b0: 01ff 593e 6c57 463e a85f db3c f6a3 5abe
000002c0: 41ef 58bd 8b88 0a3e 6cc3 01be ebc4 3bbd
000002d0: 8acd 0b3e bceb 88be 2d87 82bd d683 b3bd
000002e0: 937b 86bc c101 8fbe e18b 33bd d290 1e3c
000002f0: 15c2 22be 6b97 14be 84ed f23d a4b8 88be
00000300: 481c cb3d b208 35be 0077 083e 1d33 db3d
00000310: 08fd 1a3e 70cf c53d b54a a43d efe1 a3bd
00000320: f119 16be 4e4f 2dbe 09ef fd3d 0953 c5bd
00000330: 4f86 b7bc df08 53bb 6e1c 90bd f7a4 ac3e
00000340: 6df4 493e 8ad2 17bc 28da 093d 4f89 1fbe
00000350: bfc9 5ebe 0caa 133e bfd3 2bbe 1acb 18be
00000360: ddc3 e23d 30c1 94bd f1bb 403e d6bf b5bd
00000370: ba85 5dbc da83 1b3e 4e54 6e3e 886b 823e
00000380: 1676 c33d 32ea 333e f559 34be 6e54 4dbe
00000390: 6007 873d 6269 9abd d9ad 9f3d a8ab dd3d
000003a0: c891 66be de7e ab3d 4c18 0aba 9459 2c3d
000003b0: fd0e 20be a7e1 29be 0668 f33a dccd f3bc
000003c0: 5cc1 cabd c926 75bd 1dde 93bd 6e01 84be
000003d0: a307 273e f49b 99be 1d1a 6cbe ca0f 363e
000003e0: 43c1 34be 713b 943d 75d5 82be cc99 9a3d
000003f0: c936 e1bd 4a97 0f3e de65 adbd bdd6 86be
-0.14896135 -0.26416194 -0.06457723 0.19522671 -0.1361691 0.0011193574 0.26059768 0.21254745
-0.021044916 -0.025966566 -0.00827482 -0.011363265 0.0056505427 -0.06299148 0.21557762 0.20221229
0.17437856 -0.19699512 0.039962314 0.1706892 -0.043425083 -0.02481307 -0.12183667 0.020298567
-0.08326573 -0.22376765 0.3378385 -0.20475347 0.17235702 0.055782575 -0.029454168 0.067893475
0.070219025 -0.21573712 -0.23820238 -0.030573212 0.16184545 0.36885083 0.1741841 0.20471337
-0.035281613 0.12558709 0.14061816 0.031686533 -0.038905643 0.13799924 -0.12266745 0.28074464
-0.018437829 -0.020275405 0.1121986 -0.14912543 0.16763909 -0.10707392 -0.30018368 0.0009904096
-0.10484067 0.012942811 -0.23694497 0.14906669 -0.28416294 -0.12916295 -0.23098166 -0.25980738
-0.068285584 0.07775818 -0.010397488 0.09679767 0.07901743 0.17579257 0.039168153 -0.045027614
0.09131089 -0.15895388 -0.016531922 0.1382927 0.08041129 0.19855486 0.12235708 -0.36592633
-0.00079829094 -0.26352242 0.12393598 -0.09735667 -0.07530038 0.013980888 -0.16322325 0.2032441
-0.113583304 0.27472648 0.06366753 0.28466448 -0.04948254 0.1111939 -0.012046756 -0.20840788
0.13025397 -0.1803084 0.0028908388 0.105072066 0.19383574 -0.074898064 -0.2502082 0.09389216
-0.11950675 0.029304918 -0.23939149 0.19059749 0.09674164 0.2004289 0.028167618 -0.30300292
-0.17999277 0.11988161 -0.12716235 0.33218962 -0.14147611 0.23238763 -0.07532477 0.18301097
0.050187517 -0.10145742 0.23444483 0.23425858 -0.03615456 0.17142725 0.10706204 0.32091695
-0.15051968 -0.04627583 0.2938436 -0.058794286 -0.032389086 -0.067176454 -0.33979988 -0.123639464
0.19639358 0.18443504 -0.08860276 0.16213486 0.103412814 -0.04633024 0.15405223 -0.4237391
0.2080899 0.13570122 -0.14246425 -0.004663849 0.0814523 -0.089870386 -0.07738628 0.024901332
-0.20256747 0.19949438 -0.16639699 0.1446377 -0.17270097 0.04078169 0.12050999 0.30593392
-0.2232232 0.22380973 -0.032575943 -0.18009119 0.08294614 -0.17947173 -0.051124573 0.09606301
0.12836207 -0.21142672 0.19761625 -0.16182818 0.21288683 0.19369286 0.02677901 -0.21351609
-0.052962545 0.1352865 -0.12672204 -0.045842092 0.13652626 -0.2674235 -0.06373439 -0.0876538
-0.016416347 -0.27931026 -0.04383457 0.009678083 -0.15894349 -0.14510886 0.11861709 -0.2670337
0.099175036 -0.17679098 0.13326645 0.107031085 0.15135586 0.09658706 0.08022062 -0.08002078
-0.14658333 -0.16924784 0.12399108 -0.09634978 -0.02240291 -0.0032201333 -0.070366725 0.33719608
0.19722147 -0.009266505 0.033655316 -0.15579723 -0.21756648 0.14420336 -0.16779993 -0.14921227
0.11072514 -0.0726341 0.18821694 -0.088744804 -0.013520652 0.15187016 0.23274347 0.25472665
0.095440075 0.17569807 -0.17612441 -0.20051739 0.065932035 -0.075396314 0.07796831 0.108237565
-0.22516549 0.08373807 -0.0005267903 0.042077616 -0.15630718 -0.16589986 0.001857043 -0.029761247
-0.099001616 -0.05985144 -0.07220099 -0.2578234 0.16311507 -0.30001795 -0.23056836 0.1777946
-0.17651848 0.072379 -0.2555348 0.07548866 -0.109967776 0.14022556 -0.08466695 -0.26335707

module.lownet.encoders.0.0.sca.1.bias f4 [16]
00000000: aeea bebb f4e3 6ebe ab1f f3bd dc82 5d3e
00000010: 8b8e 85be 310f 1b3e 2035 973e 562d 29be
00000020: 0c8d 763e 30d1 8cbe 226d 593d 1104 ef3c
00000030: 2098 94be d979 39be f9dc 913d 7c47 ab3e
-0.005826316 -0.23329145 -0.118712746 0.2163195 -0.26085314 0.15142514 0.2953272 -0.165212
0.24077243 -0.27503347 0.053082593 0.029176744 -0.29022312 -0.18112887 0.07122225 0.33452976

module.lownet.encoders.0.0.sg.beta f4 [1, 16, 1, 1]
00000000: d6ea 973d bf3f 8e3d 3d9d 503d 6cab 0ebe
00000010: 7f61 f3bc ea09 cabd 0c5a 93bd 20ce c2bd
00000020: 9651 af3d 50c2 91bd b593 e9bd 4c6a 613d
00000030: aea4 dd3d 08ae 5539 489a 373d 0fea d93d
0.07417838 0.06945752 0.050931204 -0.1393258 -0.029709576 -0.09865172 -0.071949095 -0.095119715
0.08560483 -0.0711714 -0.11405126 0.055033013 0.10822426 0.00020378095 0.04482487 0.10640346

module.lownet.encoders.0.0.sg.gamma f4 [1, 16, 1, 1]
00000000: d8fd 26bd b6d6 1e3e c29d 2ebd 53de c8bd
00000010: 52f6 2b3e da9d f4bd 1db6 17be eab4 613d
00000020: 56a3 20bd bbcc d83d b733 6c3d 291b 9bbd
00000030: 8f29 d9bd 8e5f 0ebd a9c6 953d b87e f93d
-0.040769428 0.15511593 -0.04263092 -0.0980803 0.16793182 -0.1194417 -0.14815564 0.055104174
-0.03921827 0.10585924 0.057666507 -0.0757354 -0.1060363 -0.034759097 0.07313282 0.12182373

module.lownet.encoders.0.0.norm1.weight f4 [32]
00000000: 9b39 883f 041d 863f 5d52 783f 4244 833f
00000010: 5201 793f 1ff8 8d3f 91f4 8b3f 2133 913f
00000020: 5505 823f aa5f 883f b464 a73f 87e6 893f
00000030: af89 813f f3d5 843f 49f9 883f 9de2 893f
00000040: d165 843f 0aeb 823f 89d7 913f d777 973f
00000050: a222 9b3f 1dfd 8c3f 54c8 883f 01e0 963f
00000060: 56e9 993f 4bfc 7a3f c3fb 813f a2ef 963f
00000070: 6d69 823f 734e 8a3f 1c56 8b3f bbf3 8c3f
1.064258 1.0477605 0.97000676 1.0255206 0.9726764 1.1091346 1.0934011 1.1343728
1.0157877 1.0654194 1.3077607 1.0773476 1.0120143 1.0377792 1.0701076 1.0772282
1.0343572 1.0227978 1.1393901 1.1833447 1.2119944 1.1014744 1.0686135 1.178711
1.2024333 0.9804122 1.0154957 1.179188 1.0188423 1.0805191 1.0885653 1.1011881

module.lownet.encoders.0.0.norm1.bias f4 [32]
00000000: deb5 94bd 2cf9 693d 227d 313d 2a50 64bc
00000010: a592 bfbb b514 823d b9cd 76bd b4fc 813d
00000020: 61d5 793c 4766 73bd 61ea 303d 8683 923d
00000030: 205a 04bd 2ff3 42bd 3c70 353c 4e12 173c
00000040: 3ee0 e13c 6609 fc3c 0530 1c3d 8c84 5c3c
00000050: fc43 763d 1f9e 763d 7e82 c73d c480 1dbd
00000060: e22b 353c 830b e2bb f855 ffbb 7d2c 85bc
00000070: 68b8 35bc 8643 82bd 5cb7 633d 3e40 8dbd
-0.07261251 0.057122394 0.043332227 -0.013935128 -0.005846339 0.06351606 -0.060254786 0.063470274
0.015248627 -0.05942371 0.04319227 0.07153992 -0.032312512 -0.0475952 0.011074122 0.009220673
0.027572747 0.0307662 0.038131732 0.013459336 0.06012343 0.06020939 0.09741686 -0.03845288
0.011057826 -0.006898345 -0.0077922307 -0.016256565 -0.011091329 -0.06360535 0.055594787 -0.06897019

module.lownet.encoders.1.0.beta f4 [1, 64, 1, 1]
00000000: 9707 a93d 5d29 95bd 829f 3c3d 0322 b63d
00000010: ab6e a13d fbc9 773d e9ee a2bd 4423 ad3c
00000020: 81b3 3fbd c7c7 a33d 86a5 9fbd aeb3 333d
00000030: 65f1 6ebd a97b 11bd 987d 3d3d 01c5 81bd
00000040: ba05 bd3d 7321 5e3d ccff 693d 4b4d 44bd
00000050: 144a 373d bc1a 463c 7a8c a83c 68a3 1dbd
00000060: 149f 83bd 6133 87bd 7dfa 2bbd ee6a cc3d
00000070: 06fc 303d 63c6 bb3d 007a fa3c a31e 3d3d
00000080: 1c2d 133d 15c8 f43c a53c 86bc f9d1 74bd
00000090: 3125 dbbc 20bd 7c3d 5141 29bb a128 103d
000000a0: e6b0 26bd de4f d13c 45dd 8b3d b88f 013d
000000b0: b607 6abd 77e7 b93c aaf4 2c3d c6bb 6cbd
000000c0: 98e3 3cbd 1a7e 813d 0506 bd3d eff5 8ebd
000000d0: d50e d13d 3d7b aa3d c79e 34bd c909 91bd
000000e0: 431b d3bc 2177 bbbd 606c 103d 24a3 05bd
000000f0: fe08 163d 402c 9f3d 8562 9bbc 24b9 173d
0.08253401 -0.0728328 0.046050556 0.08893206 0.07882436 0.060495358 -0.07955725 0.02113498
-0.046802048 0.07997089 -0.07795243 0.043872528 -0.05833568 -0.035518322 0.046262354 -0.06336404
0.09229608 0.05423112 0.057128713 -0.047925275 0.04474838 0.012091335 0.020574797 -0.038485914
-0.06426826 -0.066015966 -0.04198693 0.09981333 0.0432091 0.09168699 0.030575752 0.046171796
0.03593169 0.029880563 -0.01638634 -0.059770558 -0.026751133 0.0617038 -0.0025826285 0.035194997
-0.040696047 0.025550779 0.06829313 0.0316312 -0.05713626 0.022693379 0.042225517 -0.057796262
-0.046115488 0.0632288 0.09229664 -0.06980502 0.10207907 0.08324287 -0.044096734 -0.070819445
-0.025769835 -0.091535814 0.035259604 -0.032626286 0.03662967 0.07772112 -0.018967876 0.0370418

module.lownet.encoders.1.0.gamma f4 [1, 64, 1, 1]
00000000: 0000 0000 0000 0000 0000 0000 0000 0000
00000010: 0000 0000 0000 0000 0000 0000 0000 0000
00000020: 0000 0000 0000 0000 0000 0000 0000 0000
00000030: 0000 0000 0000 0000 0000 0000 0000 0000
00000040: 0000 0000 0000 0000 0000 0000 0000 0000
00000050: 0000 0000 0000 0000 0000 0000 0000 0000
00000060: 0000 0000 0000 0000 0000 0000 0000 0000
00000070: 0000 0000 0000 0000 0000 0000 0000 0000
00000080: 0000 0000 0000 0000 0000 0000 0000 0000
00000090: 0000 0000 0000 0000 0000 0000 0000 0000
000000a0: 0000 0000 0000 0000 0000 0000 0000 0000
000000b0: 0000 0000 0000 0000 0000 0000 0000 0000
000000c0: 0000 0000 0000 0000 0000 0000 0000 0000
000000d0: 0000 0000 0000 0000 0000 0000 0000 0000
000000e0: 0000 0000 0000 0000 0000 0000 0000 0000
000000f0: 0000 0000 0000 0000 0000 0000 0000 0000
0.0 0.0 0.0 0.0 0.0 0.0 0.0 0.0
0.0 0.0 0.0 0.0 0.0 0.0 0.0 0.0
0.0 0.0 0.0 0.0 0.0 0.0 0.0 0.0
0.0 0.0 0.0 0.0 0.0 0.0 0.0 0.0
0.0 0.0 0.0 0.0 0.0 0.0 0.0 0.0
0.0 0.0 0.0 0.0 0.0 0.0 0.0 0.0
0.0 0.0 0.0 0.0 0.0 0.0 0.0 0.0
0.0 0.0 0.0 0.0 0.0 0.0 0.0 0.0
