ckpts/LOLv2_checkpoint2189-84.pt (torch, 693685 bytes, 80 tensors)

module.lownet.intro.weight f4 [32, 3, 3, 3]
00000000: 8c30 e83b 0106 85bd 8c69 263d 504a b53c
00000010: f317 ef3d 5904 293e e6f3 1c3e e7b5 f83d
00000020: b338 f23d 7963 91bd 5d99 16bd 5d57 9a3d
00000030: 2aef e93d 4988 01be 09f9 583d c80a 493e
00000040: 7185 633e bf63 ea3c e127 1a3d 037e 48be
00000050: 3150 74be 212d a7be c461 d4bc 1b49 05be
00000060: 587b dd3d 04d8 67be eb75 2ebd de93 dc3b
00000070: dd30 e1bc 7b57 41bd 68c1 e93c c014 db3d
00000080: 9122 3bbe 72d5 24be 2064 debd c591 d1bd
00000090: 992a 933d 0e8a 92bd 2451 64bd 3ecb 113e
000000a0: 6b49 83be 7cde 0abe f6f5 aa3e e8b3 603e
000000b0: 278e 123e ecc8 a23d 2180 073d 0319 203e
000000c0: 80fe 3ebe 3d7c f6bc f0c0 c53c a15f 773d
000000d0: e98b 63bd 7d13 95bd 9ae7 fcbb 0cbb 3abc
000000e0: ae23 e03d 022f ecbc e85c 513d 3625 db3d
000000f0: 26de 433e e9e8 f4bb 3edd 9f3d ef99 a6bd
00000100: 51ea ccbc aa9b 193e 1e1c 04be 9140 f8bd
00000110: ff28 d53c 8c72 df3d 7e00 7abe 4b35 c93c
00000120: e392 0a3e 349b 1f3e ef35 babd 727a d73d
00000130: 3282 4dbe 0d8a 36bd a84b e5bd 6fae 0a3e
00000140: 2a4d 8dbd 3d37 2b3e 2aac 95bc 9b05 80bd
00000150: 92c7 873c f3c7 95be b426 a9bd 574b 823d
00000160: d16c eb3c 9da7 73be 2d28 5e3e 2243 613e
00000170: c49a 5bbd 9eff 51be 1b72 9f3e 6e10 79bd
00000180: 3ed3 a83e 86c1 1abe 7f94 053d 76a6 173e
00000190: e8b4 e1bb b228 143e e147 25be 81ac 15bd
000001a0: b7c7 86be 61ee c9bd d18b 863e 735e 0bbe
000001b0: e870 883e 71a1 fcbc 3bd7 5bbd 98b3 f63d
000001c0: a553 c43c 737f e23d be27 b13d 0e8c 43be
000001d0: 0969 2cbd 6869 5e3d 9ba1 66be 24c1 47be
000001e0: dda7 efbd fb27 f4be 2f71 8ebe c6a3 75bd
000001f0: e7b8 7abe 4a98 67be 8828 3abe 7728 f03d
00000200: a4e8 eb3d 2d1e 033e 6a40 b9bc b60b e3bd
00000210: 378c abbd 6024 c3bd 932e babd 97a8 a43d
00000220: 3f4c 32be 57ab c93c c87f 59be 9475 bdbd
00000230: 2cce f2bc 8a2a 34be e535 d23d 58da 80bc
00000240: 7ea8 78bc f400 08be daa6 23be c8e2 d73d
00000250: 88cf 30be 87cf 51be c7f6 a3bc 85a7 8d3c
00000260: 03a9 693e 2c04 f9bd a92f 4cbe 7601 09be
00000270: f595 b63d 1aec a9be dddb eabc c836 1ebe
00000280: ba24 f1bb fdb8 ddbd d51f e33d 22f5 4cbe
00000290: cc7f 0cbe 882d b33d bd82 31be 2424 263e
000002a0: bd45 1e3d c672 86bd 7435 bcbb 1d73 833e
000002b0: 1a4e 70bd 3aca fbbc 8e46 913e c1bc ab3d
000002c0: 263c 843c 2e76 903e 0e3c 1e3e 7ac4 68bd
000002d0: ba0b 36bd 9a10 0bbd ec44 02be efa8 173e
000002e0: a214 cb3d 4ec6 87bd 90e3 d4bd 9465 48be
000002f0: 5922 87bd 7eae 04be b955 9d3d d78c 003e
00000300: 8d5a 483e a0cf 07be 4054 a6bb 810c 16be
00000310: c090 ddbd 7846 f63c 0a22 0e3e fff5 563e
00000320: d7a7 e3bd 2db9 073e f1d2 b03d a9ed 193e
00000330: d44d b3bd 24cb 0f3e 96ec f23c 2f38 98bd
00000340: ec64 2c3e 9a3f 2e3e 897c 593d 514d 243e
00000350: aa24 b53d 93dd 3d3e 9e63 103e 37b7 3a3e
00000360: f1b8 67bd fc13 3dbe 2c23 e3bd 0290 dfbd
00000370: 8780 a1bd 2c3c 413d a3c3 ad3c 0b18 19be
00000380: 7ecf c2bd 9904 813e 732a 04be 1688 76bd
00000390: 0f76 19bc 749e c03d 5fbf 143e 8f17 853e
000003a0: a921 0abe 1096 853d e28d ed3d 18b6 16be
000003b0: 1f52 98be a427 6fbe 8a89 0a3e e2ae 08be
000003c0: 8287 bebd d487 993d fce3 b53d 57dd 653e
000003d0: 5c70 803a b44f f63d d9c7 8cbd 8c1c 143e
000003e0: 8ea1 36be 1f60 e53d 51a0 5cbe bb71 f13d
000003f0: 8cfc 853d 47cc 4b3e 09d9 4cbe 0072 53be
0.0070858654 -0.06495286 0.040628 0.022130162 0.1167449 0.16505565 0.15327415 0.1214407
0.11827221 -0.07099051 -0.036767352 0.075361945 0.1142257 -0.12649645 0.052971873 0.19633019
0.22218873 0.028612016 0.037635688 -0.1957932 -0.23858716 -0.32651618 -0.025925525 -0.13016169
0.108145416 -0.22640997 -0.042592924 0.0067314943 -0.02748912 -0.04720257 0.028534606 0.10697317
-0.18274905 -0.16097048 -0.10858941 -0.102328815 0.07185859 -0.07155238 -0.055741444 0.14237687
-0.2564195 -0.13561434 0.33390778 0.21943629 0.1431204 0.07948479 0.033081178 0.15634541
-0.18651772 -0.030088538 0.024139851 0.060393933 -0.05555335 -0.07279108 -0.0077180387 -0.0113971345
0.10944305 -0.028831009 0.051113993 0.10700457 0.19127712 -0.007474054 0.078058705 -0.08134829
-0.025014075 0.15000787 -0.12901351 -0.1212169 0.026020525 0.1091052 -0.2441425 0.024561545
0.13532595 0.15586549 -0.09092318 0.105214015 -0.20069197 -0.04456525 -0.11196071 0.13543104
-0.068994835 0.1672029 -0.01827057 -0.06251069 0.016574655 -0.29254112 -0.08259335 0.06362026
0.028738411 -0.23794408 0.21695013 0.21998265 -0.053614393 -0.20507666 0.31141743 -0.060806684
0.32973665 -0.15112886 0.03261232 0.14809594 -0.006888021 0.14468649 -0.16140701 -0.036541466
-0.26324245 -0.0985992 0.26278546 -0.13610248 0.2664864 -0.0308387 -0.053672057 0.120459735
0.023965666 0.11059465 0.08650158 -0.19096395 -0.042092357 0.054299742 -0.22522585 -0.19507271
-0.11701939 -0.47686753 -0.27820727 -0.05997064 -0.24484597 -0.22616687 -0.18179524 0.11726468
0.11518982 0.1280448 -0.022613723 -0.11086218 -0.08376353 -0.09528422 -0.090909146 0.080399685
-0.17411898 0.024617834 -0.21240151 -0.09250942 -0.029639326 -0.17594352 0.10264186 -0.015729114
-0.01517689 -0.13281614 -0.15981618 0.10541302 -0.17266667 -0.20489322 -0.020015134 0.017291794
0.22818379 -0.12158999 -0.19940056 -0.13379464 0.08915321 -0.33187944 -0.028669292 -0.15450585
-0.0073591145 -0.10826299 0.11090056 -0.20015386 -0.13720626 0.08748919 -0.17335029 0.16224724
0.038640726 -0.0656486 -0.005743677 0.25673762 -0.058668233 -0.030736078 0.2837414 0.08385611
0.016141962 0.28215164 0.15452597 -0.056828 -0.044444777 -0.03395138 -0.12721604 0.14810537
0.09916045 -0.066296205 -0.103949666 -0.19569999 -0.06598348 -0.12957188 0.07682366 0.12553726
0.19565792 -0.13262796 -0.0050759614 -0.14653207 -0.108186245 0.030062899 0.13880172 0.20992278
-0.11115997 0.13254233 0.08633984 0.15032066 -0.08755079 0.14042336 0.029653829 -0.07432591
0.16835374 0.1701645 0.05309728 0.16045119 0.08844884 0.18541555 0.14100501 0.18233953
-0.05657286 -0.18464655 -0.11090693 -0.10916139 -0.07885843 0.047176525 0.02121145 -0.14950578
-0.09512232 0.2519882 -0.12906818 -0.060188375 -0.009366526 0.094052225 0.14526127 0.25994536
-0.13489403 0.06522763 0.115993276 -0.14717901 -0.29750153 -0.23354965 0.1352903 -0.13347962
-0.0930319 0.0749661 0.08881375 0.22447716 0.0009799111 0.12026921 -0.068740554 0.14464015
-0.17835066 0.11199974 -0.21545531 0.117892705 0.0654231 0.19902144 -0.20004667 -0.20648956

module.lownet.intro.bias f4 [32]
00000000: e55b 5e3d 934b f23c e46a a9bc f622 dd3d
00000010: 25d2 4ebd b526 203e be0d ee3c 8e65 cdbd
00000020: d84d c0bd ff1e 8b3d f874 eb3c 8fbc 9fbc
00000030: c0f1 14bd 3423 21bd f6bc 9ebc 3eec 29bc
00000040: db08 b1bb 556c 02bd 6b99 9dbd 69b3 273d
00000050: 18ae a5bd 2dd4 fc3d d44a 87bd 12c2 223e
00000060: 2d7b ef3d f542 4b3d de6c 43bd cc8f 343c
00000070: 9a31 94bd 8d4d d8bd 5978 f73b 30b1 c3bc
0.054286856 0.029577052 -0.020680852 0.10797684 -0.05049338 0.15639766 0.029059287 -0.10029136
-0.093898475 0.067930214 0.028742298 -0.019499091 -0.036363363 -0.039340213 -0.019377213 -0.010371266
-0.005402667 -0.031841595 -0.07695278 0.040942583 -0.080898464 0.12345157 -0.06606069 0.15894344
0.11693416 0.049624402 -0.047711246 0.011020612 -0.07236023 -0.10561667 0.0075521884 -0.0238882

module.lownet.ending.weight f4 [3, 32, 3, 3]
00000000: 7e0b d5bc b2ac 13bc 4e95 463c ad95 bc3b
00000010: 4978 463d cfa8 c23c f885 67bc c190 0c3a
00000020: daed e83c d925 a43c 8e56 743d f147 1e3c
00000030: 4c7e 833d f619 fa3c b3d8 1f3c 9904 873c
00000040: 7a4b 4e3c c9ce f73b 2316 9fbc 0263 3ebd
00000050: 9311 92bd af8c 1cbb fa8a d2bb 9853 eabb
00000060: b9c6 d0bc 920f 833c a7f8 4f3d 7bf3 233d
00000070: d2bd 23bd 4143 67bd 6c46 a33c ba54 813d
00000080: b4ee 5abd a65e dc3c 4722 873c 2b5a 49bd
00000090: ec6e 333d 0ae3 c8bc 79e4 4b3c 7e37 c1bc
000000a0: 76ea 02bd eb0b 20bd 4e61 8dbc 5b05 223c
000000b0: eee4 99bd dc3c 93bc a3a4 ba3c 9caa 5cbc
000000c0: 3191 463b 7228 a43d 224a 773a e2dc efbc
000000d0: e948 883d 1249 16bb 23a1 00bd ab9d b7ba
000000e0: 46b5 f5bc e1ff 59bd c0b3 cf3d 8bfc f2bc
000000f0: 5d72 93bd 5577 493c 43bb 37bd d731 64bd
00000100: 55ad 073d 08df b33c 6f53 9a3c adb0 23bc
00000110: c611 95bd 4d80 87bc d3a8 1fbc 4474 363d
00000120: f873 d73c f494 833c 15d5 63bd 2dcf 5dbb
00000130: c3b6 d8bc bb9c ef3b 7d47 47bc 0546 4d3c
00000140: 070c 94bb 670c 97bd b27c 893d c6a0 a13b
00000150: f7e6 ce3c c58d c5bc 6374 963b 64dd 20bd
00000160: 4b49 a23c 0d5e 1bbd c46a ed3a 5390 2abd
00000170: f7f0 d73b 31c5 cd3c a6ee 6fbd 6e0b 103d
00000180: e197 e53c 20ba 843c 7e2d a63c bd6b bc3c
00000190: 1012 ecbc 3867 84bd f83f b53d a64f a13d
000001a0: 6486 3fbd 76e3 fcbc b6af 253c c515 99bc
000001b0: 3855 003d a832 bc3b ad11 6cbd 4953 49bd
000001c0: 2250 b3bd 7491 d23c 1410 86bc 2e4a 25bd
000001d0: 37bf 183d 72d5 f2bc 8ef6 d5bc 5580 32bd
000001e0: db7e 6dbd 4da2 eabd 6011 39bc 1f8a 0dbd
000001f0: b785 e6bc 217c 25bc 412e d6bc 0ce6 1f3d
00000200: 4b6a d3bc 08c2 c6bb 68d4 193d 21bd 9b3d
00000210: 5819 03bc e943 093d 5e8d 703c 5004 aebd
00000220: 0835 93bd 6e34 c1ba 6dec b3bc d95b 783d
00000230: cf01 893b 4e54 1fbb cf1d a93d a573 473c
00000240: 1dca aebc 499a 48bd 5ab1 aa3c 02d9 2fbd
00000250: c235 ba3d 9a62 b8bc 59c6 8cbd ad19 f0bc
00000260: 0794 acbd e04e 043d 3550 1dbd 2509 4dbb
00000270: 7013 edbb 36e0 c73c 95ef 27bd 4cde 5a3c
00000280: 161c 09bd 64b0 05bc 3258 45bd 9be1 933c
00000290: 74cb 863d 89c5 9abc 4859 f23c 4839 a03c
000002a0: ad2e 5cbd 134c 4d3c 53b7 fcbc b44a 30ba
000002b0: 5da4 febc 602c 8dbb a903 e4bb 2342 183d
000002c0: c68d 583c 6020 4f3c f581 003d 03b5 523c
000002d0: 3e1e 6ebd 42cc bcbd 6958 37bb 6644 463d
000002e0: 72da 77bd 551b 06bd 99b9 203d cc71 2bbc
000002f0: f6b0 4dbc 957a b13b 08f2 1c3d e7e3 9c3c
00000300: 7e47 b13d 0309 053e 0d80 ba3d ef92 af3b
00000310: 44ab 2a3d 72c9 d63c 6e0c 333d 88ae d2bc
00000320: e4db c73c 9252 aabd 1a16 aebd 87da d83b
00000330: fec9 903c 2c49 f0bc 87e6 12bd d5de 29bd
00000340: f59c c5bc 84f1 0abc ba7e 0a3d ba32 343d
00000350: 48ff 21bd f39f 213c b479 ce3c 497c d4bc
00000360: f09f a13d 2720 0b3d 2664 3dbc 0b13 2b3d
00000370: ad1d 8fbb b734 a5bb a5c9 233c 0a6c b0b9
00000380: bcd1 0cbc b33d 34bd f702 c13c 166e 40bd
00000390: 3a7a 92bb 48d0 dbbb 0fbd 6f3d 9f46 23bd
000003a0: 0312 0c3c 967e 9ebc 7d5c 55bc bae1 e6bd
000003b0: 668f e43c 8dce 2bbd 498f b2bd ca0f dfbc
000003c0: fa9b e23b 9717 883d c53a 803c 86fb 7e3d
000003d0: b054 1e3c 2dd2 1b3d 801a 2d3c 94cb a23d
000003e0: 5a78 f8ba 290f 36bc dd3c 283d 6cc0 0abd
000003f0: 1950 8a3c 1b6f 37bd eead efbb bea1 243c
-0.026006456 -0.009013342 0.012120558 0.0057551474 0.048454557 0.023762135 -0.014131062 0.0005362146
0.028433729 0.020037578 0.059652857 0.009660707 0.064205736 0.030529957 0.009756255 0.016481685
0.012591237 0.0075624925 -0.019419735 -0.04648114 -0.07132258 -0.0023887565 -0.0064252587 -0.0071510784
-0.025485383 0.015998635 0.050774243 0.040027123 -0.03997595 -0.056460623 0.01993104 0.063149884
-0.0534503 0.0269006 0.016495837 -0.049158257 0.043806955 -0.024522323 0.012444609 -0.023586031
-0.03196188 -0.039073866 -0.017258313 0.009888972 -0.07514368 -0.017973356 0.022783583 -0.013468411
0.0030298943 0.08015527 0.0009433349 -0.02928013 0.066545315 -0.0022931737 -0.031403672 -0.0014008781
-0.029993664 -0.05322254 0.101417065 -0.029661437 -0.071995474 0.012296517 -0.04485632 -0.055711593
0.033124287 0.021956936 0.018838612 -0.009990853 -0.07278781 -0.01654067 -0.009744841 0.044544473
0.026300415 0.016062237 -0.055623133 -0.003384541 -0.026454335 0.007312385 -0.01216304 0.012528901
-0.0045180353 -0.073754124 0.06713237 0.0049324958 0.025256617 -0.024115453 0.004591511 -0.039273635
0.01981034 -0.03793149 0.0018113484 -0.041641545 0.0065900045 0.025118442 -0.058577202 0.03516715
0.028026523 0.016202033 0.020285364 0.023000592 -0.028817207 -0.06465 0.08850092 0.0787652
-0.046759024 -0.03087018 0.0101126935 -0.018687138 0.03133127 0.0057433434 -0.057634044 -0.049151693
-0.087555185 0.025704123 -0.016365089 -0.040353946 0.03729173 -0.029642794 -0.026118543 -0.04357942
-0.057982307 -0.11456738 -0.011295646 -0.03455555 -0.028139932 -0.010100395 -0.026145102 0.03903775
-0.02580752 -0.006065611 0.037556082 0.07604433 -0.008001648 0.03351203 0.014682142 -0.08496916
-0.07187849 -0.0014740357 -0.021963323 0.060634468 0.004181124 -0.0024311724 0.08257639 0.012173568
-0.02133661 -0.048975263 0.020836521 -0.042931564 0.09092285 -0.022507954 -0.06873769 -0.029309118
-0.084266715 0.032301784 -0.03840657 -0.0031285968 -0.007234983 0.024398904 -0.040999968 0.013358664
-0.03347405 -0.008159731 -0.048179813 0.018051913 0.06581774 -0.01889302 0.029583588 0.019558564
-0.05375545 0.012530345 -0.030849135 -0.0006724999 -0.031084234 -0.0043082684 -0.006958444 0.037172448
0.013217395 0.012641996 0.031373937 0.012860539 -0.05813431 -0.092186466 -0.002797628 0.048405074
-0.06051106 -0.03274091 0.0392395 -0.010464143 -0.012554398 0.0054162242 0.038316756 0.019151641
0.08656214 0.12991719 0.09106455 0.005358092 0.041667238 0.026219103 0.043713026 -0.025717989
0.024396844 -0.0831653 -0.08500309 0.0066178474 0.017674442 -0.029331766 -0.03586438 -0.041472275
-0.024122695 -0.008480433 0.033812262 0.04399369 -0.039550096 0.009864795 0.025204517 -0.02593817
0.07891834 0.03396621 -0.011559522 0.041766208 -0.0043675513 -0.0050416845 0.009996806 -0.0003364983
-0.008594926 -0.044004153 0.023560984 -0.046979986 -0.004470137 -0.0067081787 0.05852991 -0.03986227
0.008549216 -0.01934747 -0.013022539 -0.11273523 0.027900409 -0.04194503 -0.08718736 -0.027229208
0.0069155665 0.066451244 0.015653023 0.06225159 0.009663746 0.038042236 0.0105654 0.07948986
-0.0018956766 -0.011112013 0.04107367 -0.033874914 0.016883897 -0.044783693 -0.007314435 0.010048328

module.lownet.ending.bias f4 [3]
00000000: 26ef aa3d 8503 a33d 2bbf c73d
0.08346395 0.07959656 0.09753259

module.lownet.encoders.0.0.beta f4 [1, 32, 1, 1]
00000000: 8fd7 aabc 6cdf b53c 2309 53bb 35e3 963d
00000010: cf66 093d ca60 b3bd b887 48bc c361 38b9
00000020: 61f5 c33d c570 9cbd 62fa a3bd 6398 1ebd
00000030: 63e5 69bd 7dff 4c3a 609f 8a3c 00b9 263d
00000040: f016 fb3c 6ea9 843d 2548 8bbd 90bd 523d
00000050: 8f0b 83bd 6030 91bd dbfb 09bd a2a2 1e3d
00000060: f136 803d bdef 5abd e040 21bd fc62 54bc
00000070: 05d4 823d 9cb0 4dbd a15c 4338 930e 6a3c
-0.02085474 0.022201262 -0.003220149 0.07367555 0.03354531 -0.087586954 -0.012239389 -0.00017584027
0.09568287 -0.076386966 -0.08006741 -0.038719546 -0.057103526 0.0007820053 0.016921699 0.040703773
0.030650586 0.06477629 -0.0680087 0.051450312 -0.06398689 -0.07089305 -0.033687454 0.038729317
0.06260479 -0.05345129 -0.03936851 -0.012963053 0.06388096 -0.050217256 4.657789e-05 0.014285701

module.lownet.encoders.0.0.gamma f4 [1, 32, 1, 1]
00000000: 0000 0000 0000 0000 0000 0000 0000 0000
00000010: 0000 0000 0000 0000 0000 0000 0000 0000
00000020: 0000 0000 0000 0000 0000 0000 0000 0000
00000030: 0000 0000 0000 0000 0000 0000 0000 0000
00000040: 0000 0000 0000 0000 0000 0000 0000 0000
00000050: 0000 0000 0000 0000 0000 0000 0000 0000
00000060: 0000 0000 0000 0000 0000 0000 0000 0000
00000070: 0000 0000 0000 0000 0000 0000 0000 0000
0.0 0.0 0.0 0.0 0.0 0.0 0.0 0.0
0.0 0.0 0.0 0.0 0.0 0.0 0.0 0.0
0.0 0.0 0.0 0.0 0.0 0.0 0.0 0.0
0.0 0.0 0.0 0.0 0.0 0.0 0.0 0.0

module.lownet.encoders.0.0.conv1.weight f4 [64, 32, 1, 1]
00000000: 14a0 0bbd 26d8 9cbd 5d98 793d 20aa d6bd
00000010: a63f efbd 0a3a dabc 0d9e 20bd 0395 8d3e
00000020: 8bf2 0a3e 1fef 753b 0bd5 8ebe c55b 7abd
00000030: e74f dd3c e476 b93c a480 173e a546 b7bd
00000040: 8273 5a3e b7fc e0bd c8bf 193e fee2 593e
00000050: 7875 233e 8eb2 af3c 287e 1c3e da65 d8bd
00000060: bde8 4dbc e8aa 0fbe 6bb8 a7bd 1e09 c8bd
00000070: 933c da3c ea04 03be f477 71be cca7 0e3d
00000080: b4c5 e93d f6ba 81bd 5bfa 9ebd 89de 08be
00000090: 24d0 29be 5ef0 d1bc a8e7 e13d 2893 afbd
000000a0: d5b3 a5bd 7f8b c33d 6033 76be 3ef6 4e3d
000000b0: a5f0 24bd abed c1bd c847 febd 52d9 583e
000000c0: e2d1 72bd 9359 e6bc f1db 18be 16d1 9bbb
000000d0: ea8f 07be 3e43 c43d 881d a7bc 56fd 303d
000000e0: 1d52 3cbc 4099 c83d 484d 70bd f9d4 d33a
000000f0: 36c8 df3d b472 b6bd 7fbe 1f3d be14 19be
00000100: e7ce 773d cf3c 183e 11ac 5ebe b6b4 243d
00000110: 7f5c 7bbd 01d2 163e b62d ccbd 0432 5b3e
00000120: e017 f1bd 26e1 d73d c759 a83c 26e0 4bbd
00000130: 4655 1f3c efa0 5cbe 1595 0b3c 603d d3bd
00000140: f2ee adbd c5f5 5fbe 73d1 14bd b96d d23d
00000150: 196f 823c 56ca 343e fbc7 433d 4073 fd3d
00000160: 0ddb e3bd 5064 cb3c 6a25 ce3d 0be1 8c3d
00000170: 88d5 c4bc 7fa9 89bd d6df 023e 5e18 dabd
00000180: 6082 fa3d fae0 e23d d2bd 1a3e d08e 5e3c
00000190: 44e2 85be 69c6 66be cd99 033e 9f33 323e
000001a0: 59e8 7d3d ae34 0dbc 9d12 04bd 8145 a8bd
000001b0: 7d57 263d 398d cebd 2812 dbbc 5e0e ac3d
000001c0: 3153 2d3e 8751 44bb 7fab d43c 5531 8e3e
000001d0: f45c f23d 6790 3f3d b65b ad3c ffbe 073e
000001e0: f128 f53c d1cb 0abe b129 063e 4e84 5ebd
000001f0: 2f09 91bd 5cfa 7ebd e0f5 fcbd 38f5 5abc
00000200: 95d2 803d 3ba6 89bc 8195 5b3e 1bf2 043e
00000210: f704 533e 6d1f cb3d 8e60 0a3d 9843 1ebe
00000220: 1291 5b3d db2f c0bd 5b74 c53d 4410 b63d
00000230: 2d77 b73d c532 99bd dd66 1a3d e1a3 9e3d
00000240: 8902 053d 5f21 5d3e e6f9 28bd 3976 0f3e
00000250: fee8 0dbe 5153 4bbe 4d00 063c 27a4 1c3e
00000260: f992 bd3c a936 2f3c 119c fdbc 76a0 ccbe
00000270: 39eb 633c 3eab 6c3d 1dd4 53be 5231 cb3d
00000280: e277 f1bd 5ca4 373d a94c 8d3c 8b23 e53d
00000290: 85be 9ebd 1b8e e33d 8880 b3bd adae 88bd
000002a0: cd42 b73c 13eb 4dbd 514e a73e 701a 4b3e
000002b0: 49df d03d 034a a33d ee85 05bb 58f0 85be
000002c0: 3e13 b83b ec57 043e 1e64 15be 811d fbbc
000002d0: c0b1 b1bd 4d32 8abd f0c6 19be 5db5 f8bc
000002e0: c229 c73c 6d5c 5cbd e026 613e 52f4 bbbd
000002f0: 2e3d 46be 3c5c b03d 611a 873d 19fd 2ebd
00000300: 632b 05bd 1c10 7abd 81ba ee3d c95c 0a3e
00000310: 2296 ee3d f01f 33be c6df 03be 143b bfbc
00000320: 7d33 1d3d 9f30 043e 1312 11bd d1f0 343d
00000330: abc6 e2bd 977a ee3d bf87 98bc d2be 51be
00000340: eab0 523d 8dc3 093e 7b51 5f3d 00bd 123e
00000350: 178d 363e 16fb 2fbe 0d54 efbd 42ee fc3d
00000360: db2d dbbd a0ab 55be 9097 333e 2f6f 08be
00000370: 47f2 563d 5134 75bd 8529 99bd e061 1fbe
00000380: a3fc a13d db50 eebd ed6b 6ebd 0de7 353e
00000390: 9fab 96bd b7f5 2abd c5a6 cf3d 13b6 ce3d
000003a0: b1c0 803c f48f 793d 127e c8bb 42a9 713c
000003b0: 662a 49be 376b 333e 23f2 d6bd e149 9e3e
000003c0: 9039 943d 3ed1 15be 32ff 093e 979b 513e
000003d0: dfab 2d3c 6d09 523d 2485 e43d 7121 0d3d
000003e0: 0c66 c03d a6b1 0cbe 0584 be3d 3dea b83e
000003f0: 196e 653e 59bf 67bd bff4 fbbc 74cd 5e3e
-0.03408821 -0.076584145 0.06093632 -0.104816675 -0.11682062 -0.026639003 -0.03921323 0.2765275
0.13569085 0.003752656 -0.27896914 -0.061122674 0.02701564 0.0226397 0.14795166 -0.08949021
0.21333125 -0.109857015 0.15014565 0.21277997 0.1596278 0.021447446 0.152825 -0.10566302
-0.012567696 -0.1403004 -0.08189472 -0.09767364 0.026640212 -0.12794843 -0.23580915 0.034827992
0.11414662 -0.06334488 -0.07762595 -0.1336614 -0.16583306 -0.025627311 0.11030513 -0.0857299
-0.08090941 0.09548091 -0.24043036 0.050527804 -0.04026856 -0.0946916 -0.12416035 0.21176651
-0.05928219 -0.028118884 -0.14927651 -0.0047551496 -0.13238493 0.09583138 -0.020399824 0.04321035
-0.011494187 0.09794855 -0.05866745 0.0016161493 0.10926859 -0.08908597 0.03900003 -0.14949319
0.06050005 0.14866947 -0.21745326 0.040211402 -0.061367508 0.14728548 -0.09969656 0.21405798
-0.11772132 0.105409905 0.020550622 -0.04977431 0.009724921 -0.21545766 0.008519431 -0.10314441
-0.08492841 -0.21871097 -0.03633256 0.10274834 0.015922116 0.1765531 0.047798138 0.12375498
-0.11125765 0.024828106 0.1006573 0.06878861 -0.0240276 -0.06721782 0.12780699 -0.10649179
0.12231898 0.11078067 0.15111473 0.013583854 -0.2614919 -0.22536625 0.12851639 0.17402504
0.061989162 -0.008618517 -0.032244314 -0.08216382 0.04061078 -0.1008553 -0.026742056 0.08401178
0.16926266 -0.002995582 0.025960682 0.27772012 0.11834136 0.046768572 0.021161895 0.13256453
0.029926749 -0.13554312 0.13101842 -0.054325394 -0.0708183 -0.06225048 -0.123515844 -0.013364129
0.06290165 -0.016802898 0.2144375 0.12982981 0.20607363 0.09918103 0.033783488 -0.15455472
0.053605147 -0.09384128 0.09641334 0.08889821 0.08958278 -0.07480387 0.037695754 0.07746101
0.03247312 0.21594761 -0.041253947 0.14009942 -0.1385841 -0.19856001 0.008178783 0.15296994
0.023141371 0.010694184 -0.030958207 -0.39966172 0.013911062 0.057780497 -0.20686384 0.099215165
-0.11790444 0.04483448 0.017248468 0.1118842 -0.077511825 0.11111089 -0.0876475 -0.06673942
0.02237072 -0.050273012 0.32676938 0.19834304 0.10198838 0.07973101 -0.0020374018 -0.2615993
0.005617528 0.12924165 -0.14588973 -0.030653717 -0.08676481 -0.06747875 -0.15017295 -0.030359918
0.024311904 -0.05379908 0.21987486 -0.0917746 -0.19359276 0.08611342 0.06596828 -0.04272184
-0.03251208 -0.06105052 0.116566665 0.13511957 0.11649729 -0.17492652 -0.12878332 -0.0233436
0.03837918 0.12909172 -0.035417628 0.044174973 -0.11073049 0.11644476 -0.018619416 -0.20482948
0.05143825 0.13453503 0.054521065 0.1432991 0.17827259 -0.17185625 -0.11685953 0.123501316
-0.107021056 -0.20866251 0.17538285 -0.13323663 0.052477147 -0.059864346 -0.07478622 -0.1556468
0.07909515 -0.11636516 -0.058208395 0.1776392 -0.07356953 -0.04173824 0.10139231 0.10093322
0.015716882 0.0609283 -0.0061185444 0.014749827 -0.1964508 0.17521368 -0.10495403 0.3091574
0.07237542 -0.14630601 0.13476256 0.20469509 0.010600059 0.05127852 0.11158207 0.03445572
0.09394464 -0.13739643 0.093025245 0.3611621 0.2240528 -0.056578968 -0.030756352 0.21758062

module.lownet.encoders.0.0.conv1.bias f4 [64]
00000000: c5d8 68bd e3cf 343e ac1a 063e 1d59 fdbd
00000010: a680 1f3d 5dec e9bd f4f6 1abe 7bc8 033e
00000020: 49b1 85bd eed0 16be dd65 07be 9852 dfb9
00000030: b869 a2bc bc53 d6bd 9866 1cbe f341 da3d
00000040: 00d3 02be 37ea 2fbd d93d ec3a 5b14 a0bc
00000050: dccf 28bd 0a03 553c 0640 bebd cef5 06be
00000060: 0337 cbba 4225 84bd 37b6 f93c 7342 1ebe
00000070: 99f7 233c 7b97 24be 70dc 02be cf7a 973d
00000080: cbdb 3fbd 8571 083e f8a0 3ebd 2570 11be
00000090: 3b01 703e e9a2 4cbe d9a4 e43d 32ba 2abe
000000a0: 309d 75be 9efd 5dbd d802 1fbe 02ae 883d
000000b0: cc62 4ebe f3d3 cd3d 888a 893d 4505 123e
000000c0: af0b 72bd 076d 3fbd d609 f63d 33b7 e23d
000000d0: 66dd 23be 5c5a 593e 93b6 cfbd 8705 afbc
000000e0: 40b0 303e c0f0 5bbd d223 1b3d 65f3 c03c
000000f0: 4f09 1cbd 9a74 423d a9a6 84be 7aab 63be
-0.056847353 0.17657427 0.13096112 -0.12370513 0.038941048 -0.11422036 -0.15133268 0.12869446
-0.06527955 -0.14728138 -0.13222452 -0.00042595412 -0.019825801 -0.1046519 -0.15273511 0.1065711
-0.12775803 -0.042947974 0.0018023803 -0.019540956 -0.041213855 0.013001213 -0.09289555 -0.13179705
-0.0015504066 -0.06452419 0.030482395 -0.15455036 0.010007762 -0.1607341 -0.12779403 0.07396471
-0.04684047 0.13324554 -0.04654023 -0.14202936 0.2343797 -0.1998402 0.11164255 -0.1667259
-0.23985744 -0.054196946 -0.15528429 0.06673814 -0.20154876 0.10050192 0.06715876 0.14259823
-0.059093174 -0.046734836 0.12013595 0.11070099 -0.16002426 0.21225876 -0.10142245 -0.02136494
0.17254734 -0.053696394 0.037875958 0.02355356 -0.038094815 0.04747448 -0.25908402 -0.22233382

module.lownet.encoders.0.0.conv2.weight f4 [64, 1, 3, 3]
00000000: 21b5 5abe 8b90 bdbd 1fee cabe 5585 d8be
00000010: 6d3b 223e f56f e1bc ff28 66bd d429 a4be
00000020: a2c7 7dbc 6a0a 5b3e 94a9 64be cb90 47be
00000030: 5fa9 96be 8476 aabd be2e afbe 6ff7 d73d
00000040: b629 6bbe a6aa 8a3e 5b9d f3ba c4ac a0be
00000050: f9b3 90bd de21 cbbe 354a 583e 906e b33d
00000060: b9d0 4dbe 9641 50be b1f1 163e 2c79 24bd
00000070: 13b8 cbbe 55b3 58be 9668 19be 68fe debe
00000080: 68ee bfbe 5be4 3c3e 93e0 6abe 325f b7be
00000090: 67c8 a63d 99c2 9ebe 7216 e2bd c763 6fbe
000000a0: ff22 80bc ad5f 17be d292 2ebc c26c bfbd
000000b0: cf82 cdbd 311d a1bd 32eb ce3d ad29 cc3c
000000c0: 8d62 313d 3e45 94be dadb 12bd 4725 85bd
000000d0: 6b98 78be 2b0e 92be 70ee 54bd 04fa 54bd
000000e0: 82e3 a13e 9ae3 913e ff60 8f3e 3fad 9ebe
000000f0: 78e3 b5bd bdd0 223e a826 a73e 25ae 153e
00000100: e3dd 363e f105 0f3e 9b40 b4be 2eff 89be
00000110: 7f5d 6dbe da62 c5be 865a 8dbe a8da 76be
00000120: 7b3c 563e ccf6 0e3e aee4 b7be 3808 1abe
00000130: 4ea4 1a3e 063c 80bc 013e 8abe 26e9 4abe
00000140: 4676 70bb d207 d63e dde1 05be adf5 4e3e
00000150: e4de 2ebd 8738 243e f846 943e d5e1 34be
00000160: 4626 c33e 2199 9f3e 32ed a13a f3f2 053e
00000170: 22b3 b0bc 74ac d2bd 65c7 afbe 43a4 acbe
00000180: b19c aebe 339d a4be 4b5e 833e 90c5 ac3e
00000190: cfa2 20be d46e 7c3d fd45 9a3e c62a 5ebe
000001a0: 304a 05be f060 893d 6c73 1dbe 64ab aabd
000001b0: 8605 383e ba49 bb3e 062c 503e d002 60bd
000001c0: af66 8dbe 3eda b23e 5908 373e 4c22 32be
000001d0: b851 cb3e 3f89 b5be ae12 85bd 1a85 95be
000001e0: 0c46 cebe 0640 653d 0804 4b3c 3af7 b53d
000001f0: 6c4c 533d c420 d8be 712f e13e 34c6 e73e
00000200: 18bf 06be 3fa5 133e c746 9b3e 3848 d03e
00000210: 6fc6 f33d 6a4b ca3e 45bc b23e f693 013e
00000220: a076 8abe 26fa 15be a080 2c3e 4a0e 92be
00000230: 4252 80be 009f 6dbe cc6b 073e ddd2 d93b
00000240: 5e20 babe 449c 003d 4d2c 97be 5761 8ebe
00000250: 7cb2 bd3c b6ad 1a3e 2c5c 4fbe 2525 9abe
00000260: 1759 12bd 25c7 a6be e9f2 9dbe 9576 abbd
00000270: b5d1 a2be 7135 69bd c8e2 4b3e cf44 d73d
00000280: 8e09 a1be ab37 963e e7bb 563e a9c4 4fbe
00000290: 3d97 12bc 4feb 78bd cf46 783e 3faa 73be
000002a0: f37c 833e 9528 533e bf8e af3e b9ab 68be
000002b0: 1d10 173e b833 ee3d f97e 2a3e ed25 bc3a
000002c0: 8e50 803e c78e 543e 147f 1abe 7f7d ca3e
000002d0: a16f 743e 3ebd 863d 4071 123e 768d 90be
000002e0: d2be 973e 23f5 bc3d cf78 c93d 9c41 83be
000002f0: cf43 babe 8923 093d b5af c0be a5ec b5be
00000300: d388 d53b d0d5 133e 36f6 2ebd fb88 c7be
00000310: 8c72 b5be 8b3e 403e 0ccc b43e 3ec2 8abe
00000320: ad7a e53d b6c3 5fbe b21c 0f3d e9d9 8b3d
00000330: fba8 84be b3c3 663e a09c 29bd 0a54 333d
00000340: a329 303e bf50 763d 62c0 81bd 2d80 9a3d
00000350: 337a 883e c26b ab3e c2fb 463d 5a77 8bbe
00000360: 15f3 9a3e 38d8 083d 08d7 cd3c 21c2 e1bd
00000370: b463 97bd c5e3 4a3e 3033 5dbd 314d 8c3e
00000380: eed8 153e 0d42 8b3e a50d 983e c872 c0bd
00000390: 2da8 bb3e b14a 03be 2d26 b53e 322c b8bc
000003a0: 767b 5f3e 13b9 ce3d feb7 713e 83c5 833e
000003b0: b845 b0bd 8d02 28be a4d4 bfbd ab8f 233e
000003c0: b7d4 8cbe 50a9 87bd 5674 18bb 99d5 523e
000003d0: a35e eabc 8446 2fbe 5cd3 673e db7f 25bd
000003e0: caff ab3e 8fd6 913e 02ad b9be 3b94 9abe
000003f0: 0028 2d3e fb35 89be cb3f a7be 6d83 823e
-0.21358158 -0.09256085 -0.39634797 -0.42289224 0.15842982 -0.027519206 -0.05619144 -0.32063162
-0.015489491 0.21390691 -0.22330314 -0.19488828 -0.29426095 -0.08323386 -0.3421535 0.10545241
-0.2296513 0.2708332 -0.0018586324 -0.3138181 -0.07065577 -0.39674276 0.21122058 0.087613225
-0.20099153 -0.20337519 0.14740635 -0.04015462 -0.39788875 -0.2116216 -0.14981303 -0.43553472
-0.37486577 0.18446486 -0.22937231 -0.35814816 0.081436925 -0.3100784 -0.11039437 -0.23377906
-0.015641687 -0.14782591 -0.010655122 -0.09346916 -0.100347154 -0.07866896 0.10103454 0.024922216
0.043306876 -0.28959078 -0.035854198 -0.06501251 -0.24276893 -0.28526434 -0.051985204 -0.051996246
0.31618887 0.2849396 0.2800369 -0.3099155 -0.08881277 0.1589994 0.3264668 0.14617212
0.1785808 0.1396711 -0.3520554 -0.269525 -0.23180197 -0.3855198 -0.27608126 -0.24106848
0.20921509 0.13961333 -0.35916656 -0.15042198 0.1510174 -0.015653621 -0.2700043 -0.19815502
-0.003669159 0.4180284 -0.13074441 0.20210905 -0.042693034 0.16037188 0.28960395 -0.17664273
0.38115138 0.31171516 0.0012354015 0.13080959 -0.021569792 -0.10286799 -0.34331813 -0.33719072
-0.3410392 -0.32151183 0.25657877 0.33744478 -0.15687107 0.06162913 0.30131522 -0.21696004
-0.13016582 0.067079425 -0.15376061 -0.083334714 0.17970857 0.36579686 0.20329294 -0.054690182
-0.27617404 0.3493213 0.17874278 -0.17395896 0.39710784 -0.35456273 -0.064977035 -0.2920311
-0.40287817 0.05596926 0.012391098 0.08885045 0.051586553 -0.42212498 0.43981507 0.45268404
-0.13158834 0.14418505 0.30327436 0.406801 0.119030826 0.3951066 0.34909263 0.12654099
-0.2704363 -0.14646205 0.16845942 -0.28526527 -0.25062758 -0.23205185 0.13224715 0.0066474513
-0.3635282 0.031399027 -0.29525986 -0.2780864 0.023156397 0.15105328 -0.20250005 -0.30106464
-0.035729494 -0.3257381 -0.30849388 -0.08372227 -0.3180062 -0.05693573 0.19910729 0.10511171
-0.31452602 0.29339346 0.20970117 -0.20289864 -0.008947191 -0.060771283 0.24245761 -0.23795412
0.25681266 0.2062095 0.34288594 -0.22721757 0.1475224 0.11630958 0.16649999 0.0014354564
0.25061458 0.2075759 -0.15087539 0.3954887 0.23870708 0.06579064 0.14301014 -0.28232926
0.29637772 0.092264436 0.098374955 -0.25635993 -0.3637986 0.033481155 -0.37634054 -0.35532108
0.006516555 0.14437032 -0.042715274 -0.38971695 -0.35438955 0.18773858 0.35311925 -0.2710132
0.11205039 -0.21852002 0.034939475 0.068286724 -0.25910172 0.22535591 -0.041409135 0.043781318
0.17203383 0.0601356 -0.06335522 0.07543979 0.2665573 0.3348065 0.04857994 -0.27239496
0.30263582 0.033409327 0.025126949 -0.11023355 -0.07392064 0.1981345 -0.054003894 0.27402642
0.14633533 0.2719883 0.2969791 -0.09396893 0.36651745 -0.12821461 0.35380688 -0.022482011
0.2182444 0.10093894 0.23605344 0.25736627 -0.08607048 -0.16407223 -0.0936673 0.15972774
-0.2750604 -0.06624091 -0.00232627 0.20589294 -0.02860958 -0.17116743 0.22639221 -0.040405136
0.3359359 0.28484008 -0.36264807 -0.30191216 0.1690979 -0.26798996 -0.32665858 0.25490895

module.lownet.encoders.0.0.conv2.bias f4 [64]
00000000: 7eb0 923d f28f 3abe 1be9 113d d58a 183e
00000010: ccb9 f93d 9717 443d b9be 92be 6514 b33d
00000020: 5587 843d efcd 443e 1abc 6f3e c8c2 0abe
00000030: 5166 803e 9b89 02bd 8f5f 98be 27e4 a3be
00000040: 494b 463e 7451 2f3d 92dc b4be 071d a93d
00000050: abc0 fcbd cc49 913e d993 79bd 8a5a 233d
00000060: 2ba5 63bd bd4c 71bd 1498 4fbe a3c7 9fbd
00000070: 3ad7 673e b60f 993e 15b9 123d f73f 413e
00000080: 5a07 6a3e 3f19 4abc c5d6 893e bbfc 523d
00000090: b74a 0c3e a808 203e 0c0a 273d 9ffb b83d
000000a0: e463 9a3e e340 a03e 011a 963e a944 3ebe
000000b0: de77 cc3e 902c a5be 64a0 043e e1b0 5b3e
000000c0: 139f b9be 1540 a83b f65f 393e 292a ce3d
000000d0: 385e e73e cdc1 45be 49b8 8a3e 1cea 293d
000000e0: 7c51 9e3e e776 293e a6d3 09be 00fe b7bd
000000f0: 992a 203e 9bc6 593e 2e6e 73be c870 a63e
0.071625695 -0.18218973 0.035622697 0.1489671 0.12193641 0.04787406 -0.28661135 0.08744124
0.06471125 0.19219182 0.23411599 -0.13550866 0.2507806 -0.031869512 -0.29760405 -0.32010004
0.19364657 0.04280229 -0.35324532 0.0825749 -0.12341436 0.28376615 -0.060932014 0.039881267
-0.05557744 -0.058911074 -0.20272857 -0.078017496 0.22640696 0.298948 0.03582104 0.18872057
0.22854367 -0.012335121 0.2692167 0.051510554 0.13700376 0.15628302 0.040781066 0.09032368
0.30154335 0.31299505 0.29316714 -0.1858088 0.399352 -0.3226056 0.12951809 0.21454193
-0.36254176 0.0051345923 0.18103012 0.10066635 0.4518907 -0.1931221 0.27093723 0.04148303
0.30921543 0.16549264 -0.13459644 -0.089839935 0.1564125 0.21267168 -0.23772499 0.3250792

module.lownet.encoders.0.0.conv3.weight f4 [32, 16, 1, 1]
00000000: b1a6 103e cfd7 40be 3b5b 063e d77c 7ebe
00000010: 7306 01be 5009 bc3d 71a8 c33d 0a12 bf3d
00000020: 684d 17be 7031 133e ad87 8d3c 83a8 e1bd
00000030: f3b4 1ebe 1b3e 75be c3d2 393e 81fa 52be
00000040: 6cfd 3c3d f333 65bd 6c63 443d 56a2 63be
00000050: f491 efbd eacc 24be 4c13 f63d 4803 46be
00000060: 213a 3bbe 16eb 82be 3f80 50be a67e 923d
00000070: f68f 193e 4425 a9bc 51b3 ba3e b864 1abe
00000080: a733 99bd ce4a d0bd 5b9a 0a3e 33fd efbd
00000090: be1e 103d f8e3 3d3e e9af 9d3e 067c 5fbe
000000a0: b958 6e3e 6151 0a3e c779 7b3e ada3 23be
000000b0: a926 b7bd 42cb 723d 3270 b5be eaf7 b2be
000000c0: 952e 873e 08a0 04be 2f19 e9bd af0b 16be
000000d0: 57db 203e ecd5 0a3e 9b01 db3d 23a9 45be
000000e0: 8bb5 013e 6a3f 1e3e 6017 0d3e cf6a aebe
000000f0: c525 9e3e 9fd3 3c3e e02b c03d def5 8bbd
00000100: 54a2 a8be be90 693e cbda 313e 82e2 113d
00000110: 1460 4ebe b3c6 7cbe 6413 1cbe c424 93bd
00000120: 02c8 0bbe 1abb 35bc 1ffd a6bd fccf b53d
00000130: a441 64bb 66e4 61be 4ff5 cabc fdb8 493e
00000140: 4be3 fcbc 0cc1 acbd 35f1 833d 2ea0 dfbd
00000150: 9b66 053e 198b b03d 1af1 16be 0a2a 953e
00000160: ccc7 183d d0df 843e 2f9a 9c3d 2e4d 9ebc
00000170: dbd8 a53d 3843 2ebe d973 8dbd 8abc b9bd
00000180: 0d87 91be ee0e 923e 5532 b2bd 5e69 433d
00000190: f8ab 37bc 2044 6ebe 9105 22be b6c7 60be
000001a0: a69a a6bd cfa3 58be 8ace 4abe 64df c33d
000001b0: 814f 013e 0ea8 ef3d 8647 343e 446a bd3c
000001c0: 44bc 043e 2e41 d23c 1ab8 933e 5196 82be
000001d0: 96cc 2abd 962b b7bd 38a9 343d 959d c93d
000001e0: 3b16 4fbe f07a 1d3e c85a 183e 808c 18be
000001f0: aa8c aa3d 3e16 ffbd 2421 5ebe 430f 283e
00000200: 61e4 98be 1abf 023e 3cfd c4bd 8052 26be
00000210: 341b 08be 7441 b7be f729 6cbe 55ce 933c
00000220: 0518 08be d3e3 dd3d a4bc 0cbe 0ab3 50be
00000230: be97 003e aaa9 a0be 6243 923e 3f4d 483e
00000240: a270 20be cdce 273e 47e7 0a3e acfa fbbb
00000250: 36b5 acbe 0488 00be 2e1b 303d ea8a c0bd
00000260: d13b 68be d58a edba 2a5b 83bd 54c2 313d
00000270: 0276 7bbe bf60 a43d 4b06 1b3e 1936 383d
00000280: 67a8 463e 08ca 30be d29e 0d3c 911f 96be
00000290: 246f 113e 04a9 86be 5ce5 ba3d b37e cb3d
000002a0: 4d2e 93be 3a7b 69be b369 3dbe 1ce8 1abd
000002b0: 9442 afbc d847 27be 6576 943e b32a 8f3d
000002c0: d9d9 543e 4f17 7d3d e5f1 013d 4899 563d
000002d0: 3cf7 d03e 8aac 6a3e 4820 383e fc3c c73d
000002e0: 6400 dc3c d76f fa3d 8c07 8f3c 2507 c13d
000002f0: c568 ae3d d56c eebd 0f5f d0bd fcb9 263e
00000300: 8b42 9dbc 16a9 2c3e 52da 933d b963 b3be
00000310: 064c 3ebe b232 14bd 670e d83d 08e1 aabd
00000320: a977 c13c 1fe5 9fbe ce61 a9be 3eda 393e
00000330: b441 efbc 4433 27bd 66ea 8d3d d50f 5dbe
00000340: 3f70 75bd 2146 0dbc f0b6 583e 1635 54bb
00000350: ac18 2dbe 5bb7 493d 240b 5f3d eb4c 4cbe
00000360: 68e4 cb3c 49b6 b3bd c735 72bd 4da5 56be
00000370: 2f50 cdbd 6f68 513e 9c96 a23d b4e4 1fbe
00000380: 7d58 64be 8dab cebc a18b 80bd 19bb 1d3e
00000390: c41a c13e 8112 903e f1f3 37be 7caf 61bd
000003a0: 4a5c b63c 3adb afbc d5e9 823d 3186 2fbe
000003b0: 3d2f 0a3e e681 41be ebff 91be e20f 96be
000003c0: 7c3b 25bd a4ef 62be e85b 413e 4141 343c
000003d0: 4579 bd3e 338f a03d cfbd 0fbd 5668 51bd
000003e0: a0bb 103e c122 89be 7900 ebbd 724f b93e
000003f0: eb61 54be b682 7cbc 25a4 45be 403d 443e
0.14126088 -0.18832324 0.13120739 -0.2485231 -0.12600116 0.09181464 0.09553612 0.093296126
-0.14775622 0.14374328 0.01727661 -0.11018469 -0.15498714 -0.23949473 0.18146805 -0.20603372
0.04614012 -0.055957746 0.04794638 -0.22229895 -0.1169776 -0.16093794 0.12015399 -0.19337189
-0.18283893 -0.2556998 -0.20361422 0.071530625 0.14996323 -0.020647652 0.36464933 -0.15077484
-0.07480555 -0.10170518 0.13535444 -0.11718216 0.035185568 0.18543994 0.3079827 -0.21824655
0.23276033 0.13507606 0.24558173 -0.15980406 -0.08942921 0.059275873 -0.3543716 -0.34954768
0.26402727 -0.12951672 -0.113817565 -0.14652894 0.15708672 0.13558167 0.106936656 -0.19302802
0.1266691 0.15453878 0.13778448 -0.34065863 0.3088819 0.18440102 0.093833685 -0.06834005
-0.32936347 0.22809121 0.17368619 0.035616405 -0.20153838 -0.24685173 -0.15241772 -0.07184747
-0.13650516 -0.011091972 -0.08153748 0.088775605 -0.0034829164 -0.22059783 -0.024775175 0.19699474
-0.0308701 -0.08435258 0.06442491 -0.10919224 0.13027422 0.08620281 -0.1474041 0.29133636
0.037299916 0.25952005 0.07646596 -0.019323912 0.080980025 -0.1701783 -0.06906862 -0.09069164
-0.28423348 0.28527015 -0.08701006 0.047707908 -0.011210434 -0.23268175 -0.15822436 -0.21951184
-0.081349656 -0.21156238 -0.19805351 0.09564093 0.12627985 0.11701976 0.17605409 0.02312196
0.12962443 0.025665846 0.28851396 -0.25505307 -0.041699015 -0.0894386 0.044106692 0.098445095
-0.20223324 0.15378928 0.1487838 -0.14897346 0.08327611 -0.12455414 -0.2169233 0.16412072
-0.2986174 0.12768212 -0.09618613 -0.16242409 -0.13291627 -0.35792124 -0.23062883 0.018042723
-0.13290413 0.1083447 -0.13743836 -0.20380798 0.12557885 -0.31379443 0.28567034 0.19560717
-0.15667966 0.16387482 0.13564788 -0.0076897945 -0.33732003 -0.12551886 0.04299467 -0.09401496
-0.22679068 -0.001812304 -0.064138725 0.043398216 -0.24556735 0.08026265 0.1513912 0.044973467
0.19400178 -0.17264569 0.008643823 -0.29320958 0.14202553 -0.26300824 0.09125778 0.09936275
-0.28746262 -0.22800913 -0.18497352 -0.037819013 -0.021394052 -0.16336 0.28996578 0.06990566
0.20786227 0.061789807 0.03172483 0.052392274 0.40813625 0.22917381 0.17981064 0.09728429
0.026855655 0.12228363 0.017459653 0.09425191 0.08516077 -0.11641852 -0.10174381 0.16281885
-0.01919677 0.16861376 0.07219376 -0.3503702 -0.18583688 -0.03618116 0.10549622 -0.083437026
0.023616629 -0.31229493 -0.33082432 0.18149659 -0.029206134 -0.040820375 0.069294736 -0.2158807
-0.0599215 -0.008622677 0.21163535 -0.0032380274 -0.16903943 0.049247127 0.054453984 -0.19951217
0.024889186 -0.087750025 -0.059133317 -0.20961495 -0.100250594 0.20449995 0.07938883 -0.15614587
-0.2229938 -0.025228286 -0.06276632 0.15403403 0.37715733 0.28139117 -0.1796415 -0.055098996
0.022260804 -0.02146684 0.06392256 -0.17141034 0.13494582 -0.18897209 -0.28515562 -0.29308993
-0.04033993 -0.22161728 0.18882716 0.011001886 0.37006584 0.07839813 -0.035093125 -0.051124893
0.14134073 -0.26784328 -0.114746995 0.36193424 -0.20740478 -0.015412023 -0.19300897 0.1916399

module.lownet.encoders.0.0.conv3.bias f4 [32]
00000000: c195 d5bd 346f 25be 3b52 ad3c e26b 63be
00000010: 284c 41be c2dd 533e 6672 b2bb 6610 c13d
00000020: 7770 e1bc 80e6 d3bc 36ac 1a3e 56eb 10be
00000030: bd89 97be 58f4 fb3d b01c 043e 1018 0b3d
00000040: fbaa ca3d d7b8 873c 7e5f 5cbe 10cf 49be
00000050: 0138 1bbe 0b59 99bb ccf8 4d3e 4e7e 643e
00000060: bf46 35be b5a7 49be 603d 7cbe 4a02 8d3e
00000070: cab3 25be efcd 163c 239f b93d b07f edbd
-0.10428954 -0.16155702 0.021157375 -0.22209123 -0.18876708 0.20690063 -0.0054457663 0.09426956
-0.027519448 -0.025866747 0.15104756 -0.14152274 -0.29597273 0.12302464 0.12901568 0.033958495
0.09895893 0.01656763 -0.21520802 -0.19707894 -0.15158083 -0.004679804 0.2011444 0.22313806
-0.17702769 -0.19692881 -0.24632788 0.2754081 -0.16181865 0.009204372 0.09063556 -0.1159662

module.lownet.encoders.0.0.sca.1.weight f4 [16, 16, 1, 1]
00000000: 8048 413e 6fd2 973e 5862 853e 514b fc3c
00000010: 6326 0e3e d942 f13d dfe8 33be f9ed b0bd
00000020: c47c 393e 2300 a03d ae13 213e 78b8 21be
00000030: 0daf 803e 926f b2bd 99b0 7abc e3bd 953e
00000040: 2dcd 0fbc 33bf 2dbe 8182 023d bc30 6e3d
00000050: fc7f 10be 18de c1bd c57a 1ebe bfd9 81be
00000060: e341 7b3e 523b 233e 6b7a 08be 6ea4 febc
00000070: 27a3 c43b 50a8 903c 3c51 583e daa4 2f3e
00000080: e9ce b1bc 1ffc 503c e5bd 62be 7ce9 4fbe
00000090: 6302 953e 9996 183e 99b3 8c3e c9aa 7bbe
000000a0: b6aa 2cbc 739c 37be b950 95bc 523f 2f3e
000000b0: d50d 6abd ca5a 50bd 61d8 8d3e 1ea3 193c
000000c0: 5a1c 893e 1210 073e 5213 8dbe 184e 72be
000000d0: f0f1 44be 831b 19be f7c1 3e3e ebf1 423e
000000e0: 7f7b b43c 8ce1 9d3d fd3c 8b3d 2b41 3cbe
000000f0: 4bc4 9abe 2d8b 07be 877c b6bd b8c6 1ebe
00000100: d77c 35be be29 c23d b12c 6f3e 7823 563e
00000110: a501 463e de9b e0bd d560 04be 013c 8d3e
00000120: 8f15 a9be 689f 553e 961c a83d 64ea 85bc
00000130: 26a6 4a3d 6a2a f63e 7d97 86be fc36 913d
00000140: 51e3 b6be f1ab 03be 39c7 883e fb76 a53e
00000150: c071 3e3d 3903 18be d932 d53d 3411 c9bd
00000160: 5734 993d 61fa 67be 18be c13d 0a53 5abe
00000170: 1c7f 01be 5640 88bd 5fc6 a4be 8db1 44be
00000180: 5c41 25bd 2571 b13d 0253 923d 204b 283e
00000190: 5cbd 403e bb6d a0bb 9108 a6bd 2d5e 3ebd
000001a0: a863 903c 964d 993e 6b00 42be 5b6a 4d3e
000001b0: 1a0d 833e 553b 6abe ac50 993e e2ac 3abe
000001c0: f887 3c3e 3cba 05be ef15 7bbe d33c 0abe
000001d0: d92b 0b3d 2287 84be e1c2 2a3d 848c 83bd
000001e0: ae18 483e a8e5 a13d af2a e23d 7e12 dfbd
000001f0: 1edf 1cbd 84b6 67be 88b6 8bbb e83c 3abc
00000200: 775b 62be b2e3 d0bc 9833 533e 6163 6bbe
00000210: 7402 a0bd 32c7 3e3d 2ee4 c23d 9f06 61bd
00000220: c9ec c5bb c575 8cbd 8dce 4a3e 9211 373e
00000230: b9b6 253e cd79 633e 4302 953d e461 a8be
00000240: 8e79 8abe acba 143d 0a4a 833d 02f3 033e
00000250: 9111 393c e490 adbd a367 20bc 2256 d6bd
00000260: f22d c73c c9d8 103e b674 b23d 6498 cf3d
00000270: 7c34 e73d de28 523e 73c6 2ebe 6da8 b2bc
00000280: acd6 51be c1b4 f13d e7d3 51be 1e52 ecbc
00000290: 168d f53d 81f3 233d 78a6 a1bd 803a 063d
000002a0: 4b3a 8cbe f3b4 38bd 4b93 143e 82e7 c9bd
000002b0: 8853 eb3c f076 a83e cce1 82be 2043 53bd
000002c0: d727 acbd 2b8b 4b3e 3b8f 653e d6fd 97be
000002d0: 817a 163e 031b 1a3c ee35 29be 882a 643d
000002e0: 68d3 89bd abdf 843e c74f 7f3e 4a0c 94bd
000002f0: b0f7 15bc b49c 0ebe 6557 923e ba0f 853e
00000300: 8d81 653e 7688 9d3d cdc0 03be 2ed4 9fbe
00000310: 0454 0d3d bb91 163d 2103 543e 4bc5 92be
00000320: d737 813c c93c ecbd 171a 27be ea2e 173e
00000330: ba19 f4bd 7cec 4fbe 7760 2a3e 70cc f33d
00000340: 8f0a 683d ec48 81bd 87e8 8fbe e048 3abe
00000350: 75ff 0d3e 7938 92be e109 8e3d 1852 073e
00000360: 2533 243c cac7 82be d655 2f3d 01dd a7bd
00000370: c9bc 973a 25bc c6bd d947 e3bd 2ae7 5a3e
00000380: bda0 7c3e d3b4 4cbe 3294 103e 9fb0 5bbe
00000390: cc97 8cbd c032 5a3e 9298 d33d 2028 d7bb
000003a0: 1077 be3e d47f 1ebd f8d3 2e3d 5a98 04be
000003b0: d2ae fcbd a132 ddbe 5ec8 9ebd d447 c53d
000003c0: 48cc 6d3e 4613 9dbd fcf4 dfbd e61f 45be
000003d0: 733a 863d e883 90bd 0f9e 583e 771a 86be
000003e0: b974 153c 5f31 ccbd b053 703e 2228 3bbe
000003f0: efaa 5dbe 67a7 46be fdc6 0abe e5af a23e
0.18875313 0.29652736 0.26051593 0.030797632 0.13881831 0.11780328 -0.17569302 -0.0863914
0.18114 0.07812526 0.15730163 -0.15793025 0.25133553 -0.087126866 -0.015300893 0.29246435
-0.008776945 -0.16967468 0.03186274 0.058151945 -0.14111322 -0.09466189 -0.1547652 -0.2536144
0.24536853 0.15940598 -0.13327949 -0.031084266 0.0060008946 0.017658383 0.21124738 0.1715273
-0.021705108 0.012755423 -0.22142752 -0.20303911 0.29103383 0.14901198 0.27480772 -0.24576868
-0.0105387475 -0.17930774 -0.018226968 0.17113999 -0.057142098 -0.050867833 0.27704147 0.009377269
0.26779443 0.13189724 -0.27553803 -0.23662603 -0.19232917 -0.14951901 0.18628679 0.19037597
0.022031544 0.07709035 0.06798742 -0.18384235 -0.30227885 -0.13236685 -0.089104705 -0.15505493
-0.17723404 0.09480618 0.23356892 0.20911968 0.19336565 -0.10967229 -0.12927563 0.27584842
-0.3302426 0.2086159 0.08208577 -0.016347118 0.049474858 0.48079234 -0.2628745 0.070905656
-0.35720304 -0.12858559 0.26714495 0.32317337 0.0464952 -0.1484498 0.10410089 -0.09817734
0.07480686 -0.22654106 0.09460086 -0.2132074 -0.12646145 -0.06652896 -0.32182595 -0.19208355
-0.040345535 0.08664159 0.07144739 0.16434908 0.18822235 -0.0048958934 -0.08107103 -0.04647653
0.017625645 0.29942006 -0.18945472 0.20060103 0.25595933 -0.22874196 0.2994436 -0.18230012
0.18411243 -0.13059324 -0.24520086 -0.13499765 0.033977363 -0.25884348 0.041689757 -0.064232856
0.19540665 0.079051316 0.110432975 -0.10892199 -0.03829872 -0.22628218 -0.004263703 -0.01136706
-0.22105204 -0.025499199 0.2062515 -0.22987129 -0.07812968 0.046576686 0.09516178 -0.054937955
-0.00604019 -0.068584 0.19805355 0.17877796 0.16182984 0.22214432 0.07275822 -0.32887185
-0.27045864 0.036310837 0.06410606 0.12885669 0.011295692 -0.08474901 -0.009790334 -0.10465647
0.0243139 0.14145197 0.08713667 0.10136488 0.112893075 0.20523402 -0.1706789 -0.021808827
-0.20492047 0.11802054 -0.2049099 -0.02884775 0.11989801 0.040027145 -0.078930795 0.032770634
-0.27388224 -0.04509444 0.14509313 -0.0985861 0.028726354 0.32903242 -0.25562894 -0.051577687
-0.08406036 0.19877307 0.2241792 -0.2968585 0.14695169 0.009405854 -0.16524479 0.055704623
-0.06729776 0.25951895 0.24932776 -0.072289065 -0.009153292 -0.13926965 0.28582302 0.2598856
0.22412701 0.076920435 -0.12866516 -0.31216568 0.03450395 0.036760073 0.20704319 -0.28666148
0.015773697 -0.11535031 -0.16318546 0.1476399 -0.119189695 -0.20305055 0.16638361 0.11904228
0.056650694 -0.06312737 -0.28107092 -0.18191862 0.1386698 -0.2855871 0.06935478 0.1321491
0.010021959 -0.25543052 0.04280647 -0.0819645 0.0011576648 -0.097038545 -0.11097688 0.21377245
0.24670692 -0.19990854 0.14119032 -0.21454094 -0.068648905 0.21308422 0.10331835 -0.0065660626
0.37200212 -0.038696125 0.042682618 -0.12948743 -0.12338032 -0.4320269 -0.07753061 0.09632841
0.23222458 -0.07669692 -0.10935399 -0.1925045 0.06554117 -0.07056409 0.21154045 -0.26192066
0.009122067 -0.09970354 0.23469424 -0.18277028 -0.21647237 -0.19399796 -0.1355247 0.31774822

module.lownet.encoders.0.0.sca.1.bias f4 [16]
00000000: f6bb 87be 45dc e73d 67d3 553e f127 333e
00000010: c599 70be f7b3 85be f35f 6fbe 79f3 033e
00000020: e505 8abe f09f 60bd aeb3 dcbd 4693 cd3d
00000030: d875 793e 59ef 7e3e 9e80 9e3e ecd3 e0bd
-0.2651059 0.1132131 0.20881425 0.17495705 -0.23496158 -0.26113865 -0.23376445 0.12885846
-0.26957622 -0.05484003 -0.10776459 0.10037856 0.2436136 0.24895991 0.30957502 -0.10977921

module.lownet.encoders.0.0.sg.beta f4 [1, 16, 1, 1]
00000000: 7355 b33d 7d68 663d fa9c 6d3d bab7 4fbe
00000010: 0596 16be 6a20 e4bd 5bcf 00bd 75a1 dfbd
00000020: 7146 023e 3a1e ffbd e0ef 803d e756 a0bd
00000030: 9bb6 003e 49dd 053e 4dd9 2a3e 5f5c 953d
0.087565325 0.05625199 0.058011033 -0.2028493 -0.14705665 -0.11138995 -0.03144775 -0.10919467
0.12722184 -0.12456937 0.062957525 -0.07829075 0.12569658 0.13072695 0.16684456 0.07293009

module.lownet.encoders.0.0.sg.gamma f4 [1, 16, 1, 1]
00000000: 4a4f b93d 002d 31bd 1c3d 91bd 506b 74bd
00000010: 2b0b f2bd a2bb c33d a506 39be da5a 73be
00000020: 58d1 fe3d 22fa e5bd 0a1e 9bbc 0870 153d
00000030: 7cd5 ccbd 7414 db3d 1bf3 183e ba48 fc3d
0.09048326 -0.043255806 -0.07091734 -0.059672654 -0.11818536 0.095572725 -0.18068941 -0.23765126
0.12442273 -0.1122935 -0.018935222 0.036483794 -0.100016564 0.106972605 0.14936487 0.12318559

module.lownet.encoders.0.0.norm1.weight f4 [32]
00000000: 0c97 853f 1a43 7f3f 0f0e 883f 1dfc 863f
00000010: b499 8d3f 0350 913f e214 833f 6aba 983f
00000020: 4e46 8c3f c317 893f 2c77 973f 7928 803f
00000030: 685e 813f 3a6e 8e3f 1b11 863f 71a2 913f
00000040: 0a26 8f3f 441a 8d3f 657f 863f 4585 933f
00000050: 85b2 853f 39c2 893f 4055 8c3f fa58 833f
00000060: 69aa 823f 0dc4 843f fa95 863f 59b6 993f
00000070: d6c4 833f ad14 8c3f 1b8c 873f a3e8 8d3f
1.0436721 0.99711764 1.062929 1.0545689 1.1062531 1.1352543 1.0240748 1.1931889
1.0958955 1.0710377 1.1833243 1.0012351 1.0106936 1.1127388 1.047397 1.1377698
1.1183484 1.1023641 1.0507628 1.1525046 1.0445105 1.0762397 1.0963516 1.0261528
1.0208255 1.037233 1.0514519 1.2008773 1.0294445 1.094381 1.0589632 1.108662

module.lownet.encoders.0.0.norm1.bias f4 [32]
00000000: c937 ce3c 1aed 0e3d 90e5 26bd ed86 153d
00000010: 20c0 d8bc 997c 283d b421 12ba 65ee cebc
00000020: 6ea2 d0bd 607b 5b3d 86ce 233d eb65 963b
00000030: c359 19bc 9a79 87bd 229f dfbc ff7e fc3b
00000040: 9e8a b7bb 50c5 2dbd bd74 f9bc 280a dd3c
00000050: b38d 19bd 7016 273d 18b1 a9bd d26f 0d3c
00000060: 592a 293c 1358 c63c 7f74 e4bc 73df ae3c
00000070: 78ed 2ebc 21c9 aabd 0649 bcbd 7265 02bd
0.025173085 0.034894086 -0.04074627 0.03650563 -0.0264588 0.04113445 -0.000557448 -0.02526016
-0.10187231 0.053584456 0.039991878 0.0045897863 -0.00935978 -0.066149905 -0.02729756 0.007705569
-0.0056012413 -0.0424245 -0.030451173 0.026982382 -0.03748865 0.040792882 -0.08285731 0.008632617
0.010325038 0.024211919 -0.02788758 0.021346783 -0.010676734 -0.083391435 -0.091936156 -0.031835027

module.lownet.encoders.1.0.beta f4 [1, 64, 1, 1]
00000000: 847c c53d 0ddd 0e3d 4b2c ebbc a805 c4bc
00000010: b17f eabc df8f e13b 91fc 923d dc94 13bd
00000020: 46fd 4ebd 950e d9bb 4379 4bbd d259 90bd
00000030: c520 973d 7da0 593d e13a 953d f8f5 41bd
00000040: f743 2cbd b750 cd3d 2b8e 27bd 75a0 25bc
00000050: f5f3 553d d2e0 14bd deee 223d db66 463d
00000060: 0572 46bd 35c0 c53c 0254 b3bd 1998 6dbd
00000070: 25f4 fb3c 37b6 f73c 5fd9 1a3d 23f2 c5bc
00000080: 9140 2bbd aa23 3f3d 0ae2 863c 69c1 9d3b
00000090: e796 1e3d d6ab 4f3d 1b37 85bd 59b2 543d
000000a0: f716 eebb 6705 30bd 0a2e 3fbd 9fb6 843a
000000b0: 74c4 a73d 94f2 9a3c 472e 39bd 3ae1 1a3d
000000c0: 7d5e 82bd 645c 3f3d ad34 563d 443b c53d
000000d0: ba11 383d 8302 80bd 84e8 98bd 0eb2 7bbd
000000e0: c236 68bd 3321 873d c7e0 85bd 02fa 55bd
000000f0: bbbd 423d 3471 9b3d 52b8 e3bc 8279 c7ba
0.0964289 0.03487878 -0.028707644 -0.023928478 -0.028625341 0.006883606 0.071770795 -0.036030635
-0.05053451 -0.0066240528 -0.04967619 -0.07048382 0.07379297 0.05313157 0.07286621 -0.047353715
-0.042057004 0.10025161 -0.040907066 -0.010109057 0.05223461 -0.036347218 0.039778583 0.048437934
-0.04844858 0.024139503 -0.087562576 -0.05800638 0.030756066 0.030238254 0.037804957 -0.024163311
-0.041809622 0.04666487 0.016465206 0.004814316 0.03871813 0.050700985 -0.06504651 0.051927898
-0.007265921 -0.042973902 -0.046674766 0.0010125226 0.08191767 0.018914498 -0.04521015 0.03781245
-0.063656785 0.04671897 0.05229633 0.09630445 0.04493878 -0.06250479 -0.07466224 -0.061449103
-0.056692846 0.06598129 -0.065370135 -0.05224038 0.047544222 0.07589951 -0.027797852 -0.0015218707

module.lownet.encoders.1.0.gamma f4 [1, 64, 1, 1]
00000000: 0000 0000 0000 0000 0000 0000 0000 0000
00000010: 0000 0000 0000 0000 0000 0000 0000 0000
00000020: 0000 0000 0000 0000 0000 0000 0000 0000
00000030: 0000 0000 0000 0000 0000 0000 0000 0000
00000040: 0000 0000 0000 0000 0000 0000 0000 0000
00000050: 0000 0000 0000 0000 0000 0000 0000 0000
00000060: 0000 0000 0000 0000 0000 0000 0000 0000
00000070: 0000 0000 0000 0000 0000 0000 0000 0000
00000080: 0000 0000 0000 0000 0000 0000 0000 0000
00000090: 0000 0000 0000 0000 0000 0000 0000 0000
000000a0: 0000 0000 0000 0000 0000 0000 0000 0000
000000b0: 0000 0000 0000 0000 0000 0000 0000 0000
000000c0: 0000 0000 0000 0000 0000 0000 0000 0000
000000d0: 0000 0000 0000 0000 0000 0000 0000 0000
000000e0: 0000 0000 0000 0000 0000 0000 0000 0000
000000f0: 0000 0000 0000 0000 0000 0000 0000 0000
0.0 0.0 0.0 0.0 0.0 0.0 0.0 0.0
0.0 0.0 0.0 0.0 0.0 0.0 0.0 0.0
0.0 0.0 0.0 0.0 0.0 0.0 0.0 0.0
0.0 0.0 0.0 0.0 0.0 0.0 0.0 0.0
0.0 0.0 0.0 0.0 0.0 0.0 0.0 0.0
0.0 0.0 0.0 0.0 0.0 0.0 0.0 0.0
0.0 0.0 0.0 0.0 0.0 0.0 0.0 0.0
0.0 0.0 0.0 0.0 0.0 0.0 0.0 0.0
